crab/minitree/Onnx_Model/model12Up.onnx (onnx, 239319 bytes, 14 tensors)

StatefulPartitionedCall/model/tdist_2/dense_2/MatMul/ReadVariableOp:0 f4 [100, 128]
0	0xbd530b38	-0.05152437
1	0x3db8c86e	0.09022604
2	0x3e453d20	0.19261599
3	0x3e55982f	0.20858835
4	0xbbb328d6	-0.0054675145
5	0xbd1cc6f4	-0.038275674
6	0xbe3075e2	-0.17232469
7	0x3d7f9132	0.06239433
8	0xbd35e403	-0.044406902
9	0xbdebb1a3	-0.11508491
10	0xbdfae02b	-0.12249788
11	0xbea0bd43	-0.31394395
12	0x3e3e25a0	0.1856904
13	0xbe3aaed6	-0.18230757
14	0xbe7f0162	-0.24902871
15	0xbe803ae8	-0.25044942
16	0x3e4c5c27	0.19957028
17	0xbe3b2b22	-0.18278173
18	0x3df2bdc2	0.118526
19	0xbe1216b6	-0.14266476
20	0xbe506e19	-0.20354499
21	0x3cd7cb6d	0.026342118
22	0x3e51ab9c	0.2047562
23	0x3e513f46	0.20434293
24	0xbd54214a	-0.05178956
25	0x3e3eb403	0.18623357
26	0x3ca5a975	0.020222405
27	0xbe87394e	-0.26410908
28	0xbe7e7fe3	-0.24853472
29	0x3e4677a0	0.19381571
30	0xbe3fa923	-0.18716864
31	0x3db78ad3	0.089620255
32	0x3dba49c2	0.090960994
33	0xbe4fa6d0	-0.20278478
34	0xbb8c2c21	-0.0042777215
35	0x3d674147	0.056458738
36	0xbd66625c	-0.056246147
37	0xbe5ec9eb	-0.21756713
38	0xbc11ca5b	-0.008898343
39	0x3e16238d	0.14661999
40	0x3d348daf	0.044080433
41	0xbdc030c3	-0.093843006
42	0x3e15adff	0.14617155
43	0xbe40b189	-0.18817724
44	0xbe18b934	-0.149144
45	0xbddbf1b5	-0.10739461
46	0x3e1d1afc	0.15342325
47	0xbe74025c	-0.23829025
48	0x3e2d98b4	0.16952783
49	0x3d9a4d24	0.07534245
50	0xbe120d6a	-0.1426293
51	0xbdc2f159	-0.0951869
52	0xbe747977	-0.2387446
53	0xbe685487	-0.22688495
54	0xbe070887	-0.13186847
55	0x3e209155	0.1568044
56	0x3e55ffa4	0.208983
57	0xbc6defa7	-0.01452247
58	0xbc983a91	-0.018582614
59	0xbdd88e2a	-0.10573991
60	0xbda64305	-0.08118252
61	0xbe3cd258	-0.18439615
62	0xbd1ec8a3	-0.03876556
63	0x3dd760de	0.10516523
64	0x3d66890b	0.056283038
65	0xbdded818	-0.1088106
66	0x3e556591	0.20839526
67	0x3dcd6bc8	0.10030323
68	0xbda984f9	-0.08277316
69	0x3b4ce4dc	0.003126434
70	0x3e0ed5b0	0.13948703
71	0x3d8b5fd6	0.06805389
72	0xba886062	-0.0010404701
73	0x3a4e1f80	0.000786297
74	0xbe0b094b	-0.13577764
75	0x3e19afd2	0.15008476
76	0xbd6e9374	-0.05824609
77	0xbe3fd0db	-0.18732016
78	0xbdce70b5	-0.10080091
79	0x3c52b830	0.012861297
80	0x3d6291af	0.055314716
81	0xbe4c4191	-0.19946887
82	0x3e4e970b	0.20174806
83	0xbe887444	-0.26651204
84	0x3dfd7fcc	0.12377891
85	0x3e12b37b	0.14326279
86	0x3dd5e641	0.10444308
87	0x3cfba47c	0.03071808
88	0xbdabe02a	-0.08392365
89	0xbe7bf830	-0.24606395
90	0xbe78c73d	-0.24294753
91	0xbe0da8c4	-0.1383391
92	0xbd37e313	-0.04489429
93	0xbe780d7c	-0.24223894
94	0xbd93103a	-0.07180829
95	0x3dee6eea	0.11642249
96	0xbde79fc6	-0.11309771
97	0xbe485129	-0.1956221
98	0x3e25b73d	0.16183181
99	0xbd88a9e6	-0.066730306
100	0xbe086fc5	-0.13323887
101	0x3e0c52ac	0.13703412
102	0xbe119adc	-0.1421923
103	0xbd193f3e	-0.037413828
104	0xbe583fbd	-0.21118064
105	0x3e1d9ebf	0.15392588
106	0x3c808b1e	0.015691336
107	0xbbd3be82	-0.0064619193
108	0xbd0e5594	-0.034749582
109	0x3cee2760	0.02907151
110	0x3d984897	0.074357204
111	0xbd7deb30	-0.06199187
112	0x3e40daba	0.18833438
113	0xbe39b96a	-0.18137136
114	0x3cd4beb9	0.02596985
115	0xbe6c8e2d	-0.23101111
116	0x3d3f8b19	0.046763513
117	0xbdd6eb55	-0.10494105
118	0x3e5f5696	0.21810374
119	0xbcbd3d8c	-0.023100637
120	0xbe8f7097	-0.28015587
121	0x3e3f36bc	0.18673223
122	0xbe40f424	-0.18843132
123	0xbe766df7	-0.24065386
124	0xbe39337d	-0.18086047
125	0xbdaa3b31	-0.08312071
126	0xbe7cc968	-0.24686205
127	0x3caa523d	0.020791167
128	0x3dddd29e	0.10831188
129	0xbe57058d	-0.20998211
130	0x3e5042f4	0.2033804
131	0x3d14698b	0.036233466
132	0x3d70097e	0.058602802
133	0xbdfb1663	-0.12260129
134	0xbc8a910d	-0.016914869
135	0x3dfece0f	0.12441646
136	0xbd952d59	-0.0728404
137	0xbe0580c3	-0.130374
138	0xbe45a8cd	-0.19302674
139	0xbd94dc44	-0.07268575
140	0xbe76006b	-0.24023597
141	0x3e13c223	0.14429526
142	0xbd134c03	-0.035961162
143	0x3e4e499c	0.20145267
144	0xbde102c2	-0.10986854
145	0x3d7d176d	0.06178992
146	0x3e44f3c6	0.19233617
147	0x3e0a3de4	0.13500172
148	0x3e6bcf83	0.23028378
149	0xbe09c918	-0.13455617
150	0x3e002f7d	0.12518115
151	0x3e3bd9c3	0.18344788
152	0x3e3eac2c	0.18620366
153	0x3e6101cd	0.21973343
154	0xbcf23c71	-0.029569836
155	0xbe1fafaa	-0.15594354
156	0x3cc37188	0.023857847
157	0x3e47c99e	0.19510505
158	0xbe68c10d	-0.22729893
159	0x3ceb7842	0.028743867
160	0x3d76d99f	0.060266133
161	0x3d374baf	0.044749912
162	0x3e4c3b9a	0.19944611
163	0xbd60124f	-0.05470496
164	0x3dae8b8e	0.08522712
165	0xbd072c20	-0.033001065
166	0xbe46d2b7	-0.19416319
167	0xbe5c8434	-0.21534806
168	0x3e49b3ee	0.19697544
169	0x3e0a6084	0.1351338
170	0x3e0a0a05	0.13480385
171	0x3e0ff3f7	0.14057909
172	0x3e0a5b65	0.13511427
173	0x3e3c4d5f	0.1838889
174	0x3d6af0a5	0.057358403
175	0xbe51d895	-0.20492776
176	0xbe5a4e54	-0.21318942
177	0xbe62613d	-0.22107406
178	0x3d9ccda4	0.0765641
179	0x3e4e9371	0.20173432
180	0x3dbf8fcf	0.09353601
181	0x3e3a9186	0.18219575
182	0xbe22d45c	-0.15901321
183	0xbd2e5036	-0.042556964
184	0x3e72937a	0.2368907
185	0x3ddcd63a	0.10783048
186	0x3e09e7ca	0.13467327
187	0x3dbec69a	0.09315224
188	0xbe65e28d	-0.22449704
189	0xbdaa14f1	-0.083047755
190	0x3d30c570	0.04315704
191	0xbd822a89	-0.06355769
192	0xbd990c43	-0.07473042
193	0xbe250058	-0.16113412
194	0xbe295097	-0.16534649
195	0x3d8fea6e	0.07027136
196	0x3e37e73c	0.17959303
197	0xbe378bf6	-0.17924485
198	0x3d8ed77c	0.06974694
199	0xbcc8f764	-0.024532028
200	0xbda6b67a	-0.081402734
201	0xbe10034a	-0.14063755
202	0x3db1bea0	0.08678937
203	0xbdcaf60d	-0.09910212
204	0x3e3b6426	0.18299922
205	0xbdb028bb	-0.08601519
206	0x3d738c25	0.059459824
207	0x3be95353	0.0071205287
208	0x3d841b9b	0.06450578
209	0x3e2926eb	0.16518752
210	0x3c3e4819	0.011613869
211	0x3d9f6fcc	0.077849954
212	0xbd455e3f	-0.048185583
213	0xbe138bff	-0.14408873
214	0x3e457fc9	0.19287027
215	0x3de6ff18	0.11279124
216	0xbe02a8cc	-0.12759703
217	0x3e6cdb73	0.23130588
218	0xbdc3390a	-0.09532364
219	0xbe202571	-0.15639283
220	0xbe2ad433	-0.1668251
221	0x3c9cedce	0.019156363
222	0xbdcd8506	-0.10035138
223	0x3da83661	0.08213497
224	0xbe75af32	-0.23992613
225	0x3e1efd27	0.15526257
226	0x3e47c07c	0.1950702
227	0x3e1770c2	0.14789107
228	0x3e2d8fb4	0.1694935
229	0xbc1c8938	-0.0095542
230	0xbd9e2b55	-0.07723109
231	0xbe66f3ea	-0.22553983
232	0x3db492ae	0.088170394
233	0x3d8dd05b	0.06924506
234	0x3d475224	0.04866232
235	0x3c514714	0.012773294
236	0x3e1c9c56	0.15294012
237	0xbd32dcd4	-0.04366763
238	0x3dffe99c	0.12495729
239	0xbe14cd5d	-0.14531465
240	0xbd2e9f26	-0.042632245
241	0xbd936b0b	-0.07198151
242	0xbc4ee106	-0.012626892
243	0x3e3d22d5	0.18470319
244	0x3dde2caa	0.10848363
245	0xbe7f38ea	-0.24924055
246	0x3e772a21	0.24137165
247	0xbe72ab6b	-0.23698203
248	0x3df531e9	0.1197241
249	0xbe2e06ab	-0.16994731
250	0x3e35ec8d	0.17766018
251	0xbdb2fb4c	-0.08739337
252	0x3e4c0c09	0.19926466
253	0xbe155009	-0.14581312
254	0xbdcceec9	-0.10006482
255	0x3da15354	0.07877222

StatefulPartitionedCall/model/tdist_2/dense_2/BiasAdd/ReadVariableOp:0 f4 [128]
0	0xbe09f0b0	-0.13470721
1	0xbe189e81	-0.14904214
2	0xbe6cec8d	-0.23137112
3	0xbd8d6de8	-0.069057286
4	0xbe5f6c8b	-0.2181875
5	0xbddfb75f	-0.10923647
6	0xbd547c23	-0.0518762
7	0xbd695162	-0.05696238
8	0xbdb00b0d	-0.08595858
9	0xbd69e4c9	-0.057102952
10	0xbdb98de8	-0.090602696
11	0xbdddebe3	-0.108360074
12	0xbe44a6f5	-0.19204314
13	0xbe481733	-0.195401
14	0xbe24f8fc	-0.16110605
15	0xbdbe593b	-0.09294363
16	0xbdaee7f7	-0.085403375
17	0xbdca0c92	-0.09865679
18	0xbd262493	-0.040562224
19	0xbd7b12a7	-0.061297085
20	0xbdd443d8	-0.10364503
21	0xbe86625d	-0.2624692
22	0xbdf9dc00	-0.12200165
23	0xbe2a7db0	-0.16649508
24	0xbd87dcfc	-0.06633946
25	0xbe2ec7df	-0.17068432
26	0xbd8bde67	-0.06829529
27	0xbda9aeaf	-0.082852714
28	0xbe89c8d8	-0.26911044
29	0x3de3ee48	0.11129433
30	0xbc52b9c2	-0.012861671
31	0xbde6c50b	-0.11268052
32	0xbd9f361d	-0.07773993
33	0xbde7dcda	-0.11321421
34	0xbe35c1d4	-0.17749721
35	0xbe03f843	-0.12887673
36	0xbe3cb3e3	-0.18427996
37	0xbd4f8b3c	-0.050669894
38	0x3d10f199	0.035386655
39	0xbd357bde	-0.044307582
40	0xbe105cf4	-0.14097959
41	0xbebe9602	-0.37223822
42	0xbe06165e	-0.1309447
43	0xbe008612	-0.12551144
44	0xbdcf0398	-0.10108107
45	0xbe6626b5	-0.22475703
46	0xbd8dbba7	-0.069205575
47	0xbe246e81	-0.16057779
48	0xbe33ca83	-0.17557721
49	0x3d8a5946	0.06755309
50	0x3ce646da	0.028109957
51	0xbdc0ad6c	-0.094080776
52	0xbdf74529	-0.12073738
53	0xbdb4633b	-0.08807989
54	0xbd8c56de	-0.06852506
55	0xbea8e6c5	-0.32988563
56	0x3e12e87b	0.14346497
57	0xbd826c27	-0.06368285
58	0xbdca4570	-0.098765254
59	0xbd8c5b54	-0.06853357
60	0xbdd47729	-0.103742905
61	0xbdc777af	-0.09739625
62	0xbde5938e	-0.112097844
63	0xbe580eaa	-0.21099344
64	0xbd451f81	-0.048125748
65	0xbe2e7dca	-0.17040172
66	0xbe030a8a	-0.12796989
67	0xbdf45533	-0.11930313
68	0xbe048e28	-0.12944853
69	0xbe009c34	-0.12559587
70	0xbd94a39e	-0.0725777
71	0xbe89b784	-0.26897824
72	0xbe6672e4	-0.22504765
73	0xbedb5e16	-0.4284522
74	0xbe3a3a5b	-0.18186323
75	0xbdb4ad3e	-0.08822106
76	0xbe735d85	-0.23766144
77	0xbd9f1f93	-0.07769694
78	0xbc68482f	-0.014177366
79	0xbdf54de7	-0.11977749
80	0xbe0ff217	-0.14057194
81	0xbde3442f	-0.11096989
82	0xbe6cde4e	-0.23131678
83	0xbdd37063	-0.103241704
84	0xbd78297e	-0.060586445
85	0x3d27b011	0.040939394
86	0xbdf8b61e	-0.12144111
87	0xbe5eea78	-0.2176913
88	0xbded44a3	-0.11585357
89	0xbe674724	-0.22585732
90	0xbd68fc0e	-0.056881003
91	0xbe80823c	-0.2509936
92	0xbe62f93b	-0.22165386
93	0xbe3b998e	-0.18320295
94	0xbe28d759	-0.16488399
95	0xbdd7021f	-0.104984514
96	0xbe837d07	-0.25681326
97	0xbe2e20dd	-0.17004724
98	0xbdf0f379	-0.11765189
99	0xbde94a67	-0.11391144
100	0xbdd99686	-0.10624413
101	0x3d0741dd	0.033021796
102	0xbb211f12	-0.002458517
103	0xbe14f98b	-0.14548318
104	0xbda675ea	-0.08127959
105	0xbe133541	-0.14375784
106	0xbd93a659	-0.07209463
107	0xbdd3c4c3	-0.10340264
108	0xbe18da7d	-0.14927097
109	0xbe4b8d52	-0.19878128
110	0xbeb8daff	-0.3610458
111	0xbe80ab29	-0.25130585
112	0xbde66b99	-0.112509914
113	0xbe198827	-0.14993344
114	0xbe224ff2	-0.15850809
115	0xbe146db1	-0.14494969
116	0xbe978c72	-0.2959934
117	0xbd4c8a21	-0.049936417
118	0xbe372e97	-0.17888866
119	0xbe274470	-0.163347
120	0xbe069966	-0.13144454
121	0xbddb7a27	-0.10716658
122	0xbdf7ab9e	-0.1209328
123	0xbe73956d	-0.2378747
124	0xbdf68e17	-0.1203882
125	0x3e038cb3	0.12846641
126	0xbda88437	-0.08228343
127	0xbe037f1e	-0.1284146

StatefulPartitionedCall/model/tdist_1/dense_1/MatMul/ReadVariableOp:0 f4 [100, 100]
0	0xbda1f816	-0.07908647
1	0x3e4d6cd7	0.2006105
2	0xbce321d1	-0.027726086
3	0x3dc3418c	0.095339864
4	0xbe7db7df	-0.24777173
5	0x3e58c649	0.2116939
6	0xbe7791c8	-0.24176705
7	0x3e260a5c	0.1621489
8	0x3df986d8	0.121839225
9	0xbe8279d3	-0.2548357
10	0xbcc928f4	-0.02455566
11	0xbe5e1b86	-0.21690187
12	0xbe83753c	-0.2567538
13	0x3d20adac	0.039228126
14	0x3dbb9e2d	0.09161029
15	0xbe3ba1eb	-0.18323486
16	0xbdde77b5	-0.10862676
17	0xbd22ac30	-0.039714992
18	0xbd86d68f	-0.065838926
19	0xbe59880e	-0.21243307
20	0xbd21edc6	-0.0395334
21	0xbe446af6	-0.19181427
22	0x3e1c9676	0.15291771
23	0xbd116fa0	-0.035506845
24	0x3e1d829d	0.15381856
25	0xbe55a8b9	-0.20865144
26	0x3d739267	0.059465792
27	0xbe5e4dc2	-0.2170935
28	0xbc262e72	-0.010142909
29	0x3e16e131	0.14734341
30	0x3d682a19	0.056680772
31	0xbe65fe5f	-0.22460316
32	0x3e0584a6	0.13038883
33	0x3d233377	0.039844003
34	0xbe7f7a2f	-0.24948953
35	0xbdb46cb5	-0.08809797
36	0xbe40c4f4	-0.18825132
37	0xbd243457	-0.040088978
38	0xbe9eab8d	-0.30990258
39	0xbe575936	-0.21030125
40	0x3dbe8468	0.09302598
41	0x3d46f13b	0.0485699
42	0x3dd96fc7	0.10617023
43	0x3d262450	0.040561974
44	0x3e093f15	0.1340297
45	0x3d5993cb	0.053119462
46	0xbe423260	-0.18964529
47	0xbd991045	-0.07473806
48	0xbe3aba23	-0.18235068
49	0xbd815342	-0.06314708
50	0xbdb0aa91	-0.08626283
51	0x3cd25cc8	0.025679007
52	0x3e6c76d3	0.23092203
53	0x3e0ae41b	0.13563578
54	0x3da9278f	0.08259498
55	0x3e0bff25	0.13671549
56	0x3ce4cad2	0.027928744
57	0x3dde1177	0.10843175
58	0x3e52b1e3	0.20575671
59	0xbe888396	-0.26662892
60	0x3d30cdb5	0.043164928
61	0x3d0d20a2	0.03445495
62	0xbe688f0a	-0.22710815
63	0x3dc1e632	0.094677344
64	0xbe30fc53	-0.17283754
65	0x3daf67e2	0.08564736
66	0xbe4f539f	-0.20246743
67	0x3e1fb3c6	0.15595922
68	0xbce11c98	-0.027479455
69	0x3e0df059	0.13861217
70	0x3dc5aeeb	0.096525036
71	0xbe7f033c	-0.24903578
72	0x3e0a4fbe	0.13506982
73	0x3e4ec2cb	0.20191495
74	0xbcd886e8	-0.026431516
75	0xbd01cbac	-0.031688377
76	0x3dcb64d0	0.09931338
77	0xbd4d1f39	-0.050078604
78	0xbdba4b37	-0.09096377
79	0xbdec3d49	-0.11535127
80	0xbdc5388d	-0.09629927
81	0xbdd0e5c0	-0.10200071
82	0xbd3e3a98	-0.046442598
83	0x3dc169c5	0.09444002
84	0x3cd8d9c1	0.02647102
85	0xbd8ef73c	-0.0698075
86	0x3ccf2ea8	0.025290802
87	0xbe0a531b	-0.13508265
88	0x3e2647df	0.16238354
89	0xbe3ca17c	-0.18420976
90	0x3e085540	0.1331377
91	0xbd9ba0fa	-0.07599063
92	0x3e428a82	0.18998149
93	0xbd83e767	-0.06440621
94	0x3cbc1b09	0.02296211
95	0x3e0c4ce5	0.13701208
96	0x3e785a64	0.24253231
97	0x3d1ebe10	0.038755476
98	0x3e1f6c4b	0.15568654
99	0xbe07cd8f	-0.13262008
100	0x3ce3125c	0.027718715
101	0xbdb3dc20	-0.0878222
102	0xbda5c1e3	-0.080936216
103	0x3de77f42	0.113035694
104	0xbdc9c46c	-0.098519176
105	0xbd92dfc5	-0.07171587
106	0xbe7a9a33	-0.24472885
107	0xbd9bb978	-0.07603735
108	0x3d83a73e	0.06428383
109	0x3e68db81	0.22739984
110	0xbc7973a3	-0.015225324
111	0x3da0717d	0.07834146
112	0xbd32ec42	-0.043682344
113	0xbda0e9c8	-0.0785709
114	0xbe156a0f	-0.1459124
115	0x3e268589	0.16261877
116	0xbc98a23f	-0.018632052
117	0x3e38f121	0.18060733
118	0x3dc5c4d0	0.0965668
119	0xbcfc6733	-0.030810928
120	0x3dab1a24	0.08354595
121	0xbe1adc25	-0.15123041
122	0xbe5097ed	-0.20370455
123	0x3e6c1159	0.23053493
124	0x3caf1d4e	0.021376278
125	0xbd41a07c	-0.04727219
126	0x3e069cad	0.13145705
127	0xbe735ed9	-0.2376665
128	0xbde63eca	-0.11242445
129	0x3e00ea7e	0.12589452
130	0xbe1cf404	-0.1532746
131	0xbded1651	-0.11576522
132	0xbcf4015b	-0.029785803
133	0x3e798a2d	0.24369116
134	0xbe9f58fc	-0.31122577
135	0xbd58496a	-0.052804388
136	0x3e12b866	0.14328155
137	0x3deda393	0.11603465
138	0x3c93be81	0.018035175
139	0xbe431381	-0.19050409
140	0xbe5d81ad	-0.21631499
141	0x3db46253	0.08807816
142	0xbe935fe4	-0.28784096
143	0x3e64b61d	0.22335096
144	0x3e2fd336	0.17170414
145	0xbe465301	-0.19367601
146	0x3e2ccb80	0.16874504
147	0x3e56bc75	0.20970328
148	0x3d2335a6	0.039846085
149	0x3e47a6df	0.1949725
150	0xbdfce13a	-0.12347646
151	0x3e351ce7	0.17686807
152	0xbe0cbbd0	-0.1374352
153	0x3d6266b8	0.05527374
154	0xbd1a295e	-0.037637107
155	0xbe81cb9d	-0.25350657
156	0xbc92698a	-0.01787259
157	0xbd7994a1	-0.06093276
158	0xbc538703	-0.012910607
159	0xbe73d4c3	-0.23811631
160	0x3e6ccb6d	0.23124476
161	0xbe819c1a	-0.2531441
162	0x3d1396eb	0.0360326
163	0xbdb0fbc8	-0.086417735
164	0x3ca4e4bf	0.020128606
165	0x3e7ace1e	0.2449269
166	0x3e225829	0.15853943
167	0x3e4c6955	0.19962056
168	0x3cf1e02f	0.029525844
169	0x3e182132	0.14856413
170	0x3dd761c2	0.10516693
171	0xbec0b2e3	-0.3763648
172	0x3df006b2	0.11720027
173	0xbe21b8df	-0.15793179
174	0x3e3c33d4	0.18379146
175	0xbe525af9	-0.20542516
176	0x3dead0fe	0.11465643
177	0xbdeb7d59	-0.114985175
178	0x3e0b3e9e	0.13598105
179	0xbe0839f4	-0.13303357
180	0x3d4ac0ec	0.04950039
181	0xbe598375	-0.21241553
182	0x3e404d03	0.18779378
183	0xbe53c748	-0.20681489
184	0xbe6d3749	-0.23165621
185	0x3c968f25	0.018378804
186	0x3e2d3d0e	0.16917822
187	0x3e061d36	0.1309708
188	0x3d195bdc	0.03744112
189	0x3d84eaa3	0.06490066
190	0xbe29ed96	-0.16594538
191	0x3da3bb77	0.079947405
192	0xbe46adc5	-0.19402225
193	0x3d916a8b	0.071003996
194	0xbccf8c1a	-0.02533536
195	0xbead2680	-0.33818436
196	0x3e13bc99	0.14427413
197	0x3dff41a3	0.12463691
198	0x3d29c993	0.041452
199	0x3d908139	0.07055897
200	0xbda83c33	-0.08214607
201	0xbe51c609	-0.204857
202	0xbec83850	-0.39105463
203	0xbd5cc386	-0.053897403
204	0x3bcd0c03	0.0062575354
205	0xbd3ebdd7	-0.046567764
206	0x3e13e969	0.14444508
207	0x3d4e05b4	0.050298408
208	0x3ebe6e2a	0.37193424
209	0xbe4fb17b	-0.20282547
210	0xbd387fa0	-0.045043588
211	0x3db5af2f	0.08871304
212	0x3e574944	0.21024042
213	0x3e2bab27	0.16764508
214	0x3db72852	0.08943237
215	0xbc6be43e	-0.014397679
216	0xbd4e959f	-0.05043566
217	0xbe42567c	-0.18978304
218	0xbe194386	-0.14967164
219	0x3dd35f44	0.10320905
220	0xbdc957a6	-0.09831171
221	0xbe934e98	-0.287709
222	0xbe3c2d72	-0.18376711
223	0x3e27d70d	0.16390629
224	0xbd20ef62	-0.039290793
225	0xbdf14b47	-0.11781936
226	0xbe2d3ed2	-0.16918495
227	0x3dbc5546	0.09195952
228	0xbd67f405	-0.0566292
229	0x3e3ba35b	0.18324034
230	0xbd1d4bff	-0.038402554
231	0xbe7b9782	-0.24569514
232	0xbeb9e0d3	-0.3630434
233	0x3e02dc3d	0.12779327
234	0x3d4aed56	0.049542747
235	0x3d603920	0.05474198
236	0xbe3afbfd	-0.18260188
237	0x3e1eaa49	0.15494646
238	0xbdf2eefb	-0.11861988
239	0xbe679f77	-0.22619425
240	0x3d9b0099	0.07568473
241	0x3e8c201d	0.2736825
242	0xbea05cc9	-0.3132079
243	0xbde85cba	-0.11345811
244	0xbe79470e	-0.24343511
245	0x3d0e858b	0.034795325
246	0x3d7753aa	0.060382523
247	0xbcd44f7a	-0.025916804
248	0x3d84f123	0.06491306
249	0x3dc5809c	0.09643671
250	0xbe68bceb	-0.22728316
251	0x3e63b0b3	0.22235374
252	0x3e3cb996	0.1843017
253	0x3d55c32d	0.052188087
254	0xbea811a6	-0.32825965
255	0xbca7c7b5	-0.02048097

StatefulPartitionedCall/model/tdist_1/dense_1/BiasAdd/ReadVariableOp:0 f4 [100]
0	0xbd926f2e	-0.07150112
1	0xbcc71436	-0.02430163
2	0xbda59d18	-0.08086604
3	0xbd9c3779	-0.07627768
4	0xbd607902	-0.054802902
5	0xbced9d3e	-0.029005643
6	0xbdb92753	-0.090407036
7	0xbe74de98	-0.23913038
8	0xba764480	-0.00093943626
9	0xbd0a9a06	-0.033838294
10	0xbd536842	-0.0516131
11	0xbd95d13c	-0.07315299
12	0xbbf8b9d6	-0.0075905127
13	0xbc4b0f83	-0.012393835
14	0xbcae5d8f	-0.021284847
15	0xbd851b1e	-0.06499313
16	0xbc7f563b	-0.015584524
17	0xbcb3f9f6	-0.021969777
18	0xbd5c8375	-0.053836305
19	0xbdaedda2	-0.08538367
20	0xbd4ccbe7	-0.049999144
21	0xbd952951	-0.07283271
22	0xbd35951c	-0.044331655
23	0x00000000	0.0
24	0xbda89728	-0.08231956
25	0xbd78f376	-0.060779057
26	0xbd15cc62	-0.036571868
27	0x00000000	0.0
28	0xbd7d7414	-0.06187828
29	0xbd5201c7	-0.051271226
30	0xbd528396	-0.05139502
31	0xbc25b1da	-0.010113204
32	0x3ec42935	0.38312688
33	0xbca83eda	-0.020537782
34	0xbd8e6188	-0.06952196
35	0xbd6f6445	-0.058445234
36	0xbceb7214	-0.02874092
37	0xbd814ee7	-0.063138776
38	0xbd2eedc6	-0.042707227
39	0xbd8040e6	-0.062623784
40	0xbdb53f7b	-0.088499986
41	0xbe298765	-0.16555555
42	0xbdf1da02	-0.1180916
43	0xbc804b4f	-0.01566091
44	0xbcc48453	-0.023988878
45	0x3df71bfe	0.12065886
46	0xbd22bf1f	-0.03973305
47	0xbd27017d	-0.040772904
48	0xbda3d59f	-0.07999729
49	0xbdbd2bdf	-0.09236883
50	0xbda91e49	-0.082577296
51	0x00000000	0.0
52	0xbd8cd3e5	-0.06876353
53	0xbd2d670a	-0.042334594
54	0xbcdb0fac	-0.026740871
55	0xbdcff90f	-0.10154926
56	0xbda2e524	-0.07953861
57	0xbd96071e	-0.07325576
58	0xbe516dbf	-0.20452021
59	0x3e6f514f	0.2337086
60	0xbd05b349	-0.032641683
61	0xbd3f0780	-0.046638012
62	0xbe738ae5	-0.23783453
63	0xbde6675c	-0.11250183
64	0x3d758039	0.059936736
65	0xbe635022	-0.22198537
66	0xbdef3a1d	-0.11681006
67	0xbd32fad3	-0.043696236
68	0xbd10426d	-0.0352196
69	0xbddce647	-0.107861094
70	0xbe0c16aa	-0.1368052
71	0x3e0ee0d2	0.1395295
72	0xbd54984d	-0.051903058
73	0xbd74bc31	-0.059749786
74	0xbe1ff82d	-0.15622015
75	0xbd4c29c9	-0.049844537
76	0xbe331c3e	-0.17491242
77	0xbd5b26ad	-0.05350368
78	0xbd405945	-0.046960134
79	0xbd443420	-0.047901273
80	0xbd8611b0	-0.065463424
81	0xbd11db3a	-0.03560946
82	0xbce2a687	-0.027667297
83	0xbd9bcdf0	-0.07607639
84	0xbd5744ae	-0.052555732
85	0xbcb4f041	-0.022087218
86	0xbd24854c	-0.040166184
87	0xbdf91f5a	-0.12164183
88	0xbbd64ea0	-0.0065401345
89	0xbbbf6d51	-0.005841889
90	0xbd4dfbb9	-0.05028889
91	0xbd8d1068	-0.06887895
92	0xbd481024	-0.048843518
93	0xbda514a9	-0.08060581
94	0xbcdc18b1	-0.026867243
95	0x3e87ba55	0.26509348
96	0xbcdecb52	-0.02719656
97	0xbea3675f	-0.31914803
98	0xbcfaccea	-0.030615289
99	0xbd8f6208	-0.0700112

StatefulPartitionedCall/model/tdist_0/dense/MatMul/ReadVariableOp:0 f4 [6, 100]
0	0xbe33d544	-0.17561823
1	0x3d77c11b	0.060486894
2	0x3f8ba4f9	1.0909721
3	0xbf614bb7	-0.88006157
4	0x3f6d0e52	0.92599976
5	0xbf0e71d3	-0.5564243
6	0x3f22cc2f	0.6359281
7	0xbe6b8e0d	-0.23003407
8	0xbf6fdf59	-0.93700176
9	0xbd906b62	-0.07051732
10	0x3f12e508	0.57380724
11	0xbf7e69b9	-0.9938007
12	0xbe3f6c7d	-0.18693729
13	0xbf158503	-0.58406085
14	0xbeeb74ff	-0.45987698
15	0x3c572465	0.013131236
16	0xbeebce60	-0.4605589
17	0x3ef1005d	0.4707059
18	0xbf418bf0	-0.7560415
19	0x3ee9c150	0.45655298
20	0x3ebbfde8	0.36717153
21	0xbdd42fe0	-0.10360694
22	0x3eb21cf6	0.3478772
23	0x3f5df88b	0.8670737
24	0xbf313828	-0.6922631
25	0xbf2993a8	-0.6624093
26	0x3f471799	0.7777038
27	0xbc172d71	-0.009227143
28	0xbdbb222e	-0.09137379
29	0x3f5898fb	0.8460843
30	0x3efe4a93	0.4966627
31	0x3f066942	0.5250436
32	0x3dc73d16	0.09728448
33	0xbf3ddd2e	-0.7416562
34	0xbf5e1ef1	-0.8676596
35	0xbc360edf	-0.011111944
36	0xbf2c5f78	-0.67333174
37	0x3f37ee22	0.71847737
38	0xbd381678	-0.044943303
39	0x3ed1ebaa	0.4100011
40	0xbf48aa6a	-0.7838503
41	0x3f415b41	0.7552987
42	0xbefbfc04	-0.4921571
43	0xbd9589a8	-0.073016465
44	0xbe8deed8	-0.27721286
45	0x3f70db73	0.9408485
46	0xbf462030	-0.77392864
47	0xbf89644e	-1.0733736
48	0xbf553965	-0.832907
49	0xbf12634e	-0.57182777
50	0x3f0ed418	0.5579238
51	0x3db7bca9	0.08971531
52	0xbf7af8ce	-0.98035896
53	0xbe90a3f3	-0.28250083
54	0xbf39262f	-0.7232389
55	0xbeee1511	-0.46500447
56	0xbf8d92b1	-1.1060392
57	0xbf757944	-0.9588816
58	0x3cb6552a	0.022257406
59	0xbed54186	-0.41651553
60	0xbf3a9a98	-0.7289214
61	0xbe68fde7	-0.22753106
62	0x3f035b62	0.51311314
63	0x3ebcca57	0.36873123
64	0xbee08812	-0.43853813
65	0xbf1784ff	-0.5918731
66	0xbe6c0658	-0.23049295
67	0xbf726f0d	-0.947007
68	0xbe78bda2	-0.24291089
69	0xbf053080	-0.5202713
70	0xbf43d330	-0.7649412
71	0x3f155320	0.58329964
72	0xbef06e1f	-0.46959016
73	0xbe441d8a	-0.19151893
74	0x3f66e749	0.90196663
75	0x3f053250	0.52029896
76	0x3f82fcdd	1.0233418
77	0xbd1315df	-0.03590953
78	0xbf73a58a	-0.9517447
79	0xbf6cfa70	-0.9256964
80	0x3f7001ae	0.93752563
81	0x3f09e862	0.53870213
82	0xbf5bf84e	-0.8592576
83	0x3f798279	0.9746471
84	0x3f4cda6b	0.8002078
85	0x3e0c6f3e	0.1371431
86	0xbf530071	-0.8242255
87	0x3f2bad1a	0.6706101
88	0xbf814d35	-1.0101687
89	0x3f3ec3d8	0.74517584
90	0xbf72bf7a	-0.9482342
91	0xbe9c69a8	-0.3054936
92	0x3cdf2e50	0.027243763
93	0x3ea13efb	0.31493363
94	0xbe73b5fb	-0.23799889
95	0xbe461354	-0.1934331
96	0xbdba28c8	-0.0908981
97	0x3ec3f046	0.38269252
98	0xbf430158	-0.76173925
99	0x3ee8af39	0.45446184
100	0xbe7834af	-0.24238847
101	0x3ef68c3a	0.4815386
102	0xbe8f607c	-0.280033
103	0xbf254085	-0.64551574
104	0xbd9dd75f	-0.077070944
105	0xbbf9090b	-0.007599955
106	0x3e634065	0.22192533
107	0x3dbe3ec7	0.092893176
108	0xbe5e629b	-0.21717303
109	0xbebc779b	-0.36810002
110	0xbd2f089c	-0.04273282
111	0xbdbc1a90	-0.09184754
112	0xbdc6609b	-0.09686395
113	0xbd0b09ac	-0.03394477
114	0x3f0d4a57	0.5519156
115	0xbeb7425c	-0.35792816
116	0x3e151cf3	0.14561825
117	0x3ec87efd	0.39159384
118	0xbe4fbd38	-0.20287025
119	0x3ea791fe	0.3272857
120	0x3e5febca	0.2186729
121	0x3dcb30d0	0.099214196
122	0xbdce7427	-0.10080748
123	0xbeee2970	-0.4651599
124	0xbefe9c4f	-0.4972863
125	0xbdd8aa0a	-0.105793074
126	0xbe0704b4	-0.13185388
127	0xbcb74b71	-0.02237484
128	0xbe600ee2	-0.21880677
129	0x3e89d7eb	0.26922545
130	0x3f092ce8	0.53584146
131	0x3e1b9980	0.15195274
132	0xbed52b45	-0.41634575
133	0xbf23a44f	-0.6392259
134	0x3cae10a7	0.021248175
135	0x3ed8c053	0.42334232
136	0x3ed8492c	0.42243326
137	0xbe880e64	-0.2657348
138	0xbd08f105	-0.03343298
139	0x3ef82b6b	0.48470625
140	0xbed61a6c	-0.41817033
141	0xbe49045f	-0.19630574
142	0x3e8efd0a	0.27927428
143	0xbd5000aa	-0.050781883
144	0xbccd58af	-0.025066702
145	0xbdcb5a99	-0.099293895
146	0x3f0d0c19	0.55096585
147	0x3f157094	0.58374906
148	0x3eebcca3	0.46054563
149	0x3db6624d	0.08905468
150	0x3edf52e8	0.4361794
151	0x3d327717	0.043570604
152	0xbeea984b	-0.45819315
153	0x3d05d652	0.032675095
154	0x3eefbe0d	0.46824685
155	0x3bb7ae39	0.0056054858
156	0x3f34e56c	0.7066257
157	0x3f0110c2	0.50416195
158	0x3e83ba44	0.25728047
159	0x3ef13b56	0.47115582
160	0xbeef5344	-0.46743214
161	0xbf32f470	-0.6990423
162	0xbdb3e74e	-0.08784352
163	0x3ec45377	0.3834493
164	0xbf0776a9	-0.52915436
165	0xbe5ae3ac	-0.21375912
166	0xbef32707	-0.47490713
167	0x3f245e35	0.6420625
168	0xbe85d5c6	-0.2613966
169	0xbe8dde0a	-0.27708465
170	0xbdf6270f	-0.120191686
171	0x3d9f9364	0.077917844
172	0xbd5e21a1	-0.05423129
173	0xbe118f9c	-0.14214939
174	0x3c9d488f	0.019199638
175	0xbea85cb6	-0.32883233
176	0x3d413653	0.04717095
177	0x3e93acc6	0.28842753
178	0x3e998e88	0.29991555
179	0x3ccbcb6d	0.024877274
180	0x3e19540e	0.1497347
181	0xbbbc54b0	-0.0057474
182	0xbed0583b	-0.40692315
183	0xbe1451f8	-0.14484394
184	0xbda82c99	-0.08211631
185	0xbe978a23	-0.29597577
186	0xba8ec974	-0.0010893778
187	0xbeee36a8	-0.46526074
188	0x3f5f1658	0.8714347
189	0x3e7c712f	0.24652551
190	0x3e9aabc2	0.30209166
191	0x3eb74763	0.3579665
192	0x3c869427	0.016428066
193	0xbed70854	-0.4199854
194	0x3e1ebd47	0.15501891
195	0xbc6e804b	-0.014556955
196	0x3c7aa707	0.0152986115
197	0x3daa26d2	0.08308186
198	0x3c1c372d	0.009534639
199	0x3e13d921	0.14438297
200	0xbe8b0ad0	-0.27156687
201	0x3f290264	0.6601927
202	0xbe9bb230	-0.30409384
203	0xbee24bf9	-0.44198588
204	0xbeaa149f	-0.33218858
205	0xbf4ade59	-0.79245526
206	0xbf7277da	-0.9471413
207	0xbf28d222	-0.6594564
208	0x3ebf6b70	0.37386656
209	0x3f6c5c86	0.9232868
210	0x3e6f3e23	0.23363547
211	0x3f4a9bc0	0.79143906
212	0xbf4cadc6	-0.7995266
213	0xbdaaf9ac	-0.083484024
214	0xbed978cc	-0.42474973
215	0xbf3c7e53	-0.73630255
216	0x3f25b9e6	0.64736784
217	0xbda8e7d0	-0.0824734
218	0x3e2ffc10	0.17185998
219	0x3eaf6b4f	0.34261557
220	0xbee6e9fc	-0.4510039
221	0xbf71c508	-0.9444127
222	0xbf3f7e74	-0.7480233
223	0x3f61de15	0.88229495
224	0x3e979d1c	0.29612052
225	0xbf867c61	-1.0506707
226	0xbed1276b	-0.40850386
227	0xbf11f6f5	-0.5701745
228	0x3d3ba73d	0.045813788
229	0x3eb0279f	0.34405228
230	0xbdee9079	-0.1164865
231	0xbef814e8	-0.4845345
232	0xbe341d9b	-0.17589419
233	0x3d6bbd95	0.057553846
234	0xbef83e0c	-0.48484838
235	0xbf76dc6b	-0.9643008
236	0x3f5a51b1	0.852809
237	0x3ea75e9f	0.32689378
238	0x3f2331e9	0.6374803
239	0x3f1d1b17	0.6136946
240	0x3e25b056	0.16180548
241	0xbe4a0b0a	-0.19730774
242	0xbf26c0f0	-0.6513815
243	0x3f77352c	0.9656551
244	0xbd99e157	-0.07513683
245	0x3b82cdf0	0.003991835
246	0x3f1b0675	0.6055673
247	0x3f47ab1e	0.7799548
248	0xbda42c56	-0.08016269
249	0xbe52fff1	-0.20605446
250	0x3eb31231	0.34974816
251	0x3e27cdba	0.16387072
252	0x3e879751	0.26482633
253	0x3f4e36b3	0.80552214
254	0x3f6da7a7	0.9283394
255	0x3f83e8d7	1.0305432

StatefulPartitionedCall/model/tdist_0/dense/BiasAdd/ReadVariableOp:0 f4 [100]
0	0xbe960904	-0.29303753
1	0xbeae0e90	-0.33995485
2	0xbe918637	-0.2842271
3	0x3dd766c3	0.10517647
4	0xbeded12d	-0.43518963
5	0xbe1f3b5e	-0.1554999
6	0xbdc057f8	-0.09391779
7	0xbe50d182	-0.20392421
8	0xbe0f9904	-0.14023215
9	0xbdc8ff18	-0.0981428
10	0xbda4ebd3	-0.080527924
11	0x3d3480bc	0.044068083
12	0xbe00cb9c	-0.12577671
13	0x3e6ac9ab	0.22928493
14	0xbc2505f2	-0.010072218
15	0xbe2c39e1	-0.16818954
16	0xbee225c2	-0.44169432
17	0xbea4a543	-0.32157335
18	0xbe7200a6	-0.2363306
19	0xbeebbab6	-0.46040887
20	0xbe45e43c	-0.19325346
21	0xbe35a88f	-0.17740081
22	0xbe31d8fe	-0.17367932
23	0xbeb736f7	-0.35784122
24	0xbe82f725	-0.2557918
25	0x3e11e0df	0.14245938
26	0xbec39612	-0.38200432
27	0xbe43759b	-0.19087832
28	0xbe994a2e	-0.29939407
29	0xbe78e362	-0.2430549
30	0xbe81599d	-0.25263682
31	0xbe749120	-0.23883486
32	0xbe36a49e	-0.17836234
33	0x3c96df15	0.01841692
34	0x3ec51718	0.38494182
35	0xbe42d98d	-0.19028302
36	0x3e245240	0.16047001
37	0xbeca4520	-0.39505863
38	0x3da73a21	0.08165384
39	0xbe7dc969	-0.24783863
40	0xbe8bab28	-0.2727902
41	0xbefa8abc	-0.4893397
42	0xbe7e2ce8	-0.24821818
43	0xbe24bdb5	-0.16087992
44	0xbd130814	-0.035896376
45	0xbe961e16	-0.2931983
46	0xbca0774c	-0.019588135
47	0xbe81b412	-0.25332695
48	0xbe8256db	-0.2545689
49	0x3e79b77b	0.24386398
50	0xbe65a2a9	-0.22425331
51	0xbcc76646	-0.02434076
52	0xbe0b2055	-0.13586552
53	0xbda2542a	-0.07926209
54	0xbafb2832	-0.0019161759
55	0x3dbcf106	0.09225659
56	0xbe7bcbf1	-0.24589516
57	0xbe28e216	-0.16492495
58	0xbe52f547	-0.20601378
59	0xbe78b6ac	-0.24288434
60	0x3b761def	0.0037554463
61	0xbe2a2dd5	-0.16619046
62	0xbd6750ef	-0.05647367
63	0xbdde6c37	-0.10860484
64	0xbe0f5061	-0.13995506
65	0x3dbf94f9	0.09354586
66	0x3c6e2308	0.014534719
67	0xbe4ab7a2	-0.19796613
68	0xbda64236	-0.081180975
69	0xbdbd384a	-0.09239252
70	0xbe839f9f	-0.2570772
71	0xbdf4a2ec	-0.119451374
72	0xbddb934a	-0.107214525
73	0xbe8b5a3d	-0.27217284
74	0xbe214877	-0.157503
75	0xbec2afcc	-0.38024747
76	0xbe8d3753	-0.27581272
77	0xbe987015	-0.29773012
78	0xbda3e8bb	-0.08003374
79	0x3b0fb5b7	0.002192838
80	0xbe6a10da	-0.22857991
81	0xbeb094cf	-0.34488532
82	0xbe389e83	-0.18029217
83	0xbeea2b62	-0.45736223
84	0xbe034245	-0.12818249
85	0xbc46632b	-0.012108604
86	0xbd5a81a7	-0.053346302
87	0xbf007c43	-0.5018961
88	0xbdf9c861	-0.12196422
89	0xbeeb3469	-0.45938423
90	0xbdffd7a9	-0.12492306
91	0xbf008b85	-0.5021289
92	0xbe8d365c	-0.27580535
93	0xbe3c0025	-0.1835943
94	0xbea2bd28	-0.3178494
95	0x3e580789	0.21096624
96	0xbe823151	-0.2542825
97	0xbe4cdb85	-0.20005615
98	0x3e9229c3	0.28547487
99	0xbe962f39	-0.29332903

StatefulPartitionedCall/model/output/MatMul/ReadVariableOp:0 f4 [100, 2]
0	0xbe26bb56	-0.162824
1	0xbe0b82b1	-0.13624074
2	0x3d97e052	0.074158326
3	0xbd6d26cb	-0.057898324
4	0x3c820099	0.015869426
5	0x3d165d8c	0.036710307
6	0x3ddf3c3c	0.10900161
7	0x3d1b84b1	0.03796834
8	0xbc878f9b	-0.016547969
9	0x3cbea4ba	0.023271907
10	0x3d3c59e4	0.045984164
11	0x3d56a579	0.0524039
12	0x3c8848ef	0.01663634
13	0x3dda4916	0.10658471
14	0x3d88639d	0.06659625
15	0xbdef2c0c	-0.11678323
16	0x3d829943	0.063768886
17	0x3d9006e5	0.07032565
18	0x3dcda241	0.10040713
19	0x3d8e1666	0.06937866
20	0x3d1f403d	0.03887962
21	0x3d14f649	0.03636769
22	0xbdb2e5d2	-0.08735241
23	0xbd9ae960	-0.07564044
24	0xbc231ead	-0.009956044
25	0xbd68b22b	-0.05681054
26	0xbdea1277	-0.11429303
27	0xbd69226a	-0.056917585
28	0xbda2329f	-0.079198115
29	0xbda410da	-0.08011027
30	0xbdd1562f	-0.10221516
31	0xbd6f424b	-0.05841283
32	0x3e2e75a7	0.17037068
33	0x3df48a2d	0.119404174
34	0x3ddf886a	0.10914691
35	0x3e435628	0.19075835
36	0x3de2ef25	0.110807694
37	0x3e1380e8	0.14404643
38	0x3d37bcdf	0.044857856
39	0x3dd7f2e1	0.10544372
40	0x3cb16bb7	0.021657808
41	0x3db81920	0.08989167
42	0xbdd99537	-0.106241636
43	0xbde42315	-0.11139504
44	0x3e03a4a1	0.1285577
45	0x3e1f5d27	0.15562879
46	0x3e3fbe90	0.18725038
47	0x3e769d9d	0.24083562
48	0x3dd30922	0.10304476
49	0x3dd016d6	0.101606056
50	0x3cad13f8	0.021127686
51	0x3caa9cda	0.020826746
52	0xbdd40b9e	-0.10353778
53	0x3d0a3da0	0.033750176
54	0x3cfc115c	0.030769996
55	0x3d8c0d1b	0.06838437
56	0xbda8aaf2	-0.0823573
57	0xbd86a342	-0.06574108
58	0x3ce27af3	0.027646517
59	0x3d8fa3ec	0.070136875
60	0x3e448671	0.1919191
61	0x3e4189b1	0.18900181
62	0xbd9af855	-0.07566897
63	0xbe30cbcf	-0.17265247
64	0xbc85466f	-0.016268937
65	0x3c6654d9	0.014058315
66	0x3c5f2fbc	0.013622221
67	0x3ccc327a	0.024926413
68	0x3cce82bd	0.025208825
69	0xbe324c41	-0.17411901
70	0xbdbe2ef2	-0.09286298
71	0xbdb6edbb	-0.08932062
72	0x3d049d1b	0.03237639
73	0x3af60ff4	0.0018773065
74	0xbdcd666b	-0.100293
75	0xbc9a927a	-0.018868674
76	0xbe8a49d7	-0.2700946
77	0xbdeb3363	-0.114844106
78	0x3e055ace	0.1302292
79	0xbda69eb7	-0.08135741
80	0x3d8c8ee7	0.06863194
81	0x3e21655b	0.1576132
82	0x3d1644cf	0.036686715
83	0x3d4dc9b6	0.050241195
84	0x3dcb9fa4	0.099425584
85	0x3dc44734	0.095838934
86	0x3de37804	0.111068755
87	0x3e1fe3cd	0.15614243
88	0xbe31051c	-0.17287105
89	0xbde1360c	-0.10996637
90	0x3e112a69	0.14176334
91	0x3db0f491	0.08640397
92	0x3c202e7d	0.009776709
93	0xbd85b247	-0.06528144
94	0x3e100f6d	0.14068384
95	0x3dd727e0	0.105056524
96	0x3e23a1c3	0.15979676
97	0x3e44ed01	0.19231035
98	0xbe0df056	-0.13861212
99	0xbd9f286c	-0.07771382
100	0x3dd40f2b	0.103544556
101	0x3dd63d4b	0.104609095
102	0xbe48bdca	-0.19603649
103	0xbe5b53b5	-0.2141865
104	0xbe04d7ad	-0.12972899
105	0x3d80bdc4	0.06286195
106	0x3dc43994	0.09581295
107	0x3dc1b9ce	0.094592676
108	0xbde790bb	-0.11306902
109	0xbe1462b5	-0.14490779
110	0x3e0cd829	0.13754334
111	0x3e4e327f	0.2013645
112	0xbe04af9a	-0.12957612
113	0xbe0afb2b	-0.13572375
114	0x3dac51da	0.084140494
115	0x3dcc2200	0.099674225
116	0x3e1a976b	0.15096824
117	0x3e563a6a	0.2092072
118	0xbe23e8ba	-0.16006747
119	0xbdfaafa5	-0.12240533
120	0xbdb16952	-0.086626664
121	0xbdcb5030	-0.09927404
122	0xbe2c3a62	-0.16819146
123	0xbe0a4fab	-0.13506953
124	0xbdbae9df	-0.091266386
125	0x3c0dfc12	0.008666055
126	0xbd2f93af	-0.04286545
127	0xbc9fabe0	-0.019491136
128	0x3e1b866c	0.15187997
129	0x3e66c6e6	0.22536811
130	0x3c67e215	0.014153023
131	0x3bb09047	0.005388293
132	0xbe0b560e	-0.13607046
133	0xbe0e3fe0	-0.13891554
134	0xbe3ac872	-0.18240526
135	0xbe1de46c	-0.15419167
136	0xbd41097d	-0.04712819
137	0x3c84d0e1	0.016212882
138	0x3d9cb8aa	0.076524094
139	0x3df23baa	0.11827786
140	0xbc02f8b7	-0.007993869
141	0xbd486ba0	-0.048930764
142	0xbe402fbc	-0.18768209
143	0xbe089f38	-0.13341987
144	0xbd996557	-0.07490032
145	0x3c1755bb	0.009236748
146	0xbe9a5669	-0.3014405
147	0xbd5d00c5	-0.053955812
148	0x3e2f91f3	0.17145519
149	0x3e5379ee	0.20651981
150	0xbc8c7078	-0.017143473
151	0xbb5995c2	-0.0033200835
152	0xbd88f603	-0.06687548
153	0xbcb740fa	-0.02236985
154	0xbe157d44	-0.14598566
155	0xbdf84e88	-0.12124354
156	0x3dae3b73	0.08507433
157	0x3daada71	0.08342446
158	0x3c9632fe	0.018334862
159	0x3d6da3b9	0.058017466
160	0xbe19239c	-0.1495499
161	0xbe56da5f	-0.2098174
162	0xbe01f74a	-0.1269199
163	0xbdfe0a47	-0.12404304
164	0x3e054816	0.1301578
165	0xbe2de5ee	-0.16982242
166	0x3c837c47	0.016050471
167	0x3d76d566	0.060262106
168	0x3d2bcc38	0.041942805
169	0x3d73ff9a	0.059569933
170	0xbd469da2	-0.048490174
171	0xbc9d0844	-0.01916898
172	0x3db59789	0.08866794
173	0x3dbe8eb4	0.09304562
174	0xbca3f2e8	-0.020013288
175	0xbcbde105	-0.023178587
176	0x3d901683	0.07035544
177	0x3e1ce4e6	0.15321693
178	0x3cc9094e	0.02454057
179	0x3e053326	0.13007793
180	0x3d6f79e3	0.05846585
181	0x3d90ab29	0.07063896
182	0x3dfe9890	0.12431443
183	0xbcadf39b	-0.021234324
184	0xbe09e843	-0.13467507
185	0xbdeecbdb	-0.11659976
186	0xbd3434c9	-0.043995652
187	0xbd52f058	-0.05149874
188	0x3e515b03	0.20444874
189	0x3e814abc	0.2525233
190	0xbd815d46	-0.063166186
191	0xbd35571c	-0.044272527
192	0x3dac9ad8	0.084279716
193	0x3dbdc1c2	0.09265472
194	0x3e349757	0.17635857
195	0xbda02a38	-0.078205526
196	0xbe49fd37	-0.197255
197	0xbe27549f	-0.16340874
198	0x3dfbbf51	0.1229235
199	0x3d8d4035	0.06897012

StatefulPartitionedCall/model/output/BiasAdd/ReadVariableOp:0 f4 [2]
0	0x3b259658	0.0025266614
1	0xbb2596cf	-0.002526689

StatefulPartitionedCall/model/dense_2/MatMul/ReadVariableOp:0 f4 [100, 100]
0	0xbc3a87bb	-0.0113849
1	0xbded4861	-0.11586071
2	0xbd0e786e	-0.03478282
3	0x3d71317b	0.05888508
4	0xbe0a10fa	-0.13483039
5	0xbd07784f	-0.03307372
6	0xbe45a26b	-0.19300239
7	0xbc67500e	-0.014118208
8	0xbe396638	-0.181054
9	0x3b12db9d	0.0022408732
10	0x3e6936eb	0.22774856
11	0xbdc4c8e5	-0.0960863
12	0x3d811397	0.063025646
13	0xbe44d0ab	-0.19220226
14	0x3c8d3840	0.017238736
15	0xbe574830	-0.21023631
16	0xbe42f4a5	-0.19038637
17	0x3dbd8f15	0.09255806
18	0x3e8688d1	0.26276258
19	0xbe3b0ab1	-0.18265797
20	0xbe8707a4	-0.26373017
21	0xbc2c753e	-0.010526
22	0xbe120a26	-0.14261684
23	0xbcb58d51	-0.022162111
24	0xbdfc278c	-0.123122305
25	0xbd917098	-0.07101554
26	0x3cf4772e	0.029841986
27	0x3d090595	0.03345259
28	0x3e0635e7	0.131065
29	0xbe5724e7	-0.21010171
30	0xbe0f6fe8	-0.14007533
31	0x3d0727cd	0.03299694
32	0x3d1fa37a	0.038974263
33	0xbe713731	-0.2355621
34	0xbd4331e5	-0.047655005
35	0x3d758ed6	0.059950672
36	0xbd621958	-0.05519995
37	0xbe11b835	-0.14230426
38	0x3cbc7d85	0.023009071
39	0x3d7ba476	0.06143614
40	0xbc23d91b	-0.010000492
41	0x3dce0e74	0.100613505
42	0x3bd4a5cf	0.0064894925
43	0xbe0948d1	-0.13406684
44	0x3d9632a1	0.073338754
45	0xbd9502a3	-0.072758935
46	0x3e1e934f	0.15485881
47	0xbdd54859	-0.1041419
48	0x3e6ce54d	0.23134346
49	0xbe5fc286	-0.21851549
50	0xbe44856a	-0.19191518
51	0xbe296616	-0.16542849
52	0xbe1cae92	-0.15300968
53	0xbdef1481	-0.11673833
54	0x3d0ad704	0.03389646
55	0x3e0a4ddc	0.13506263
56	0x3e0894b8	0.13337982
57	0xbba5f3f4	-0.005064482
58	0x3d395a00	0.045251846
59	0xbe81e416	-0.25369328
60	0x3d6db316	0.058032118
61	0x3df91b7d	0.12163446
62	0xbde1df52	-0.11028923
63	0xbe35e3ff	-0.17762755
64	0xbe4c26f1	-0.1993673
65	0xbe9e325e	-0.30897802
66	0x3d0ac66c	0.033880636
67	0xbdf3a8a6	-0.118974015
68	0x3c24e40b	0.010064135
69	0x3ce5fe8c	0.028075479
70	0xbe1f4719	-0.15554465
71	0xbe6d6ab2	-0.23185232
72	0x3bb9ed24	0.0056740213
73	0x3e036157	0.12830101
74	0x3c382eeb	0.011241655
75	0xbdca9779	-0.09892172
76	0x3e79e930	0.2440536
77	0x3e0a0cd2	0.13481453
78	0x3c07ad0d	0.008281005
79	0xbe62c204	-0.22144324
80	0x3d8a4c10	0.06752789
81	0xbd36d5cd	-0.04463749
82	0xbe89074c	-0.2676338
83	0xbce0ec06	-0.027456295
84	0x3da30cef	0.07961451
85	0xbe1e62aa	-0.15467325
86	0x3de42534	0.111399084
87	0xbe4a8782	-0.19778255
88	0xbddce6e4	-0.107862264
89	0xbe5524d3	-0.20814829
90	0x3daf56dd	0.0856149
91	0xbd6c8e9e	-0.057753198
92	0xbd113216	-0.035448156
93	0xbe18cc73	-0.14921741
94	0xbd5488c9	-0.05188826
95	0xbdb2726e	-0.08713232
96	0x3e314b0f	0.17313789
97	0xbe09caff	-0.13456343
98	0xbe5c807a	-0.21533385
99	0x3d5f8080	0.054565907
100	0x3e188c5c	0.14897293
101	0x3e567f0e	0.20946905
102	0x3d799f10	0.06094271
103	0xbe3b7b85	-0.18308838
104	0x3d1849f9	0.03717992
105	0xbe0a43c5	-0.13502415
106	0x3e061f6e	0.13097927
107	0xbe15b3c9	-0.14619364
108	0xbe0d72d0	-0.13813329
109	0x3e5149ee	0.20438358
110	0xbd192548	-0.03738907
111	0x3d95845c	0.07300636
112	0xbe80d9ef	-0.2516627
113	0xbdb174e9	-0.08664877
114	0xbc0303a2	-0.007996472
115	0x3e119b5f	0.14219426
116	0xbe68f8cb	-0.22751157
117	0xbe03839f	-0.12843178
118	0x3dcc0be5	0.09963206
119	0xbc87f66d	-0.016596997
120	0x3cf8ee8e	0.03038719
121	0xbb8bf49d	-0.0042711035
122	0xbd82b322	-0.06381823
123	0xbe27eb19	-0.16398276
124	0xbd8b78de	-0.06810163
125	0x3db0a359	0.08624906
126	0xbd156414	-0.036472395
127	0x3d627bfe	0.05529403
128	0xbce4df73	-0.02793858
129	0x3c59fdc0	0.013305128
130	0xbe158ba3	-0.14604048
131	0x3de9e83e	0.1142125
132	0x3da07c84	0.078362495
133	0xbdb77407	-0.08957677
134	0xbddcdef2	-0.10784711
135	0xbe44a34f	-0.19202922
136	0x3e1f884f	0.15579341
137	0xbe1bbb89	-0.15208258
138	0xba6b1710	-0.0008967975
139	0x3df8c785	0.1214743
140	0xbdf1c247	-0.118046336
141	0x3df0ed81	0.1176405
142	0x3e348990	0.17630601
143	0x3e1fc2e4	0.15601689
144	0x3d98311a	0.074312404
145	0xbac60609	-0.0015108
146	0xbe6c7bc1	-0.23094083
147	0xbddc8b7f	-0.10768794
148	0x3c39b739	0.011335188
149	0x3df4d4d4	0.11954656
150	0xbdf92ad1	-0.1216637
151	0xbd0551fc	-0.03254889
152	0xbcb2f7cb	-0.021846673
153	0xbd3eaec8	-0.046553403
154	0xbd255e0c	-0.040372893
155	0x3dd1d0f1	0.102449305
156	0xbe087146	-0.1332446
157	0xbe874adb	-0.26424298
158	0xbe0494fc	-0.12947458
159	0x3d243b12	0.040095396
160	0xbe66d011	-0.22540309
161	0xbdd77dc0	-0.10522032
162	0x3dcd5189	0.10025317
163	0x3e1c8af3	0.1528738
164	0xbdf75910	-0.12077534
165	0xbe1f0535	-0.1552933
166	0x3dc3962d	0.09550128
167	0x3d9a4550	0.075327516
168	0x3e00576c	0.12533349
169	0xbe981ef5	-0.29711118
170	0x3e3c07a3	0.18362288
171	0x3e49f952	0.19724014
172	0x3d216e37	0.03941175
173	0xbdd233ad	-0.102637626
174	0x3d1c1838	0.038109034
175	0xbe64b2b1	-0.2233379
176	0x3cc5a349	0.024125712
177	0xbd654fd5	-0.055984337
178	0xbd55012d	-0.052003074
179	0xbd1e177e	-0.038596623
180	0x3ddfefbf	0.109344
181	0x3e1baa55	0.15201695
182	0xbd3ed589	-0.04659036
183	0xbe4cb908	-0.19992459
184	0xbe6a516e	-0.22882625
185	0xbbdc97c4	-0.006731959
186	0xbd991184	-0.07474044
187	0x3dea1013	0.11428847
188	0x3e45e77f	0.1932659
189	0x3acada5a	0.0015476451
190	0x3df5bfb4	0.11999455
191	0xbd695855	-0.056969006
192	0xbe13b6b0	-0.14425159
193	0xbe5ae72e	-0.2137725
194	0x3e05a9e1	0.13053085
195	0xbda0b69c	-0.0784733
196	0x3e1739c1	0.14768125
197	0x3bd8a24d	0.0066111446
198	0xbd5260ea	-0.051361956
199	0xbd36b5a4	-0.04460682
200	0x3e383bf3	0.17991619
201	0xbd8fc5ae	-0.07020126
202	0xbdb5e126	-0.08880834
203	0xbe831b8c	-0.25606954
204	0x3c8d27c3	0.017230874
205	0xbe22e5c0	-0.15907955
206	0x3e481525	0.19539316
207	0x3df9fc2e	0.122063026
208	0xbe2e6752	-0.17031601
209	0xbdc1363e	-0.09434174
210	0xbd6808cf	-0.056649026
211	0xbe1a7628	-0.15084136
212	0xbd2cf769	-0.042228136
213	0xbe5230dc	-0.20526451
214	0x3d7d73f4	0.06187816
215	0xbe951331	-0.29116204
216	0xbe14c890	-0.14529634
217	0x3e244d3f	0.16045092
218	0xbdc922fe	-0.09821127
219	0xbdecf083	-0.115693115
220	0x3db265ec	0.08710846
221	0xbe277226	-0.16352138
222	0x3dbf7138	0.09347767
223	0xbd8634aa	-0.065530136
224	0x3e15e838	0.14639366
225	0x3e6484ba	0.22316256
226	0x3e0ee51a	0.13954583
227	0xbb9cd45e	-0.0047860583
228	0xbd8599e5	-0.06523494
229	0xbe805540	-0.2506504
230	0x3d3d8ced	0.046276975
231	0xbd4b08bf	-0.049568888
232	0x3e0b9355	0.13630421
233	0xbe763787	-0.2404462
234	0x3e1e0306	0.15430841
235	0xbb71b548	-0.0036881734
236	0x3e552be4	0.20817524
237	0x3e0767c2	0.13223174
238	0xbe901a50	-0.28145075
239	0x3e5519e6	0.2081066
240	0xbd241085	-0.040054817
241	0xbd4b9643	-0.049703848
242	0xbdbd5be3	-0.092460416
243	0x3e07d5c9	0.13265146
244	0xbe25377e	-0.1613445
245	0xbcf8ccfb	-0.03037118
246	0xbd03058d	-0.031987716
247	0xbe4b6ca0	-0.19865656
248	0xbb917bc7	-0.0044398042
249	0xbd53281b	-0.05155192
250	0xbe1ed8ed	-0.15512438
251	0x3e16132a	0.14655748
252	0xbd8510dd	-0.06497357
253	0x3db2c140	0.08728266
254	0xbe840dde	-0.2579183
255	0xbd8cd12f	-0.06875836

StatefulPartitionedCall/model/dense_2/BiasAdd/ReadVariableOp:0 f4 [100]
0	0xbe20bbb7	-0.15696608
1	0xbdfe203a	-0.124084905
2	0xbe2e90ae	-0.17047378
3	0xbdb7bbba	-0.08971353
4	0xbe00b08c	-0.12567347
5	0xbe1e8600	-0.15480804
6	0xbe3e1255	-0.1856168
7	0xbc9b9680	-0.018992662
8	0xbe2c0d9a	-0.16802064
9	0xbdf80ef2	-0.121122256
10	0xbe48c6c5	-0.19607075
11	0xbdc6b965	-0.0970333
12	0xbe84840e	-0.25882
13	0xbebc7ff9	-0.36816385
14	0xbe411b25	-0.18858011
15	0xbdd0346e	-0.1016625
16	0xbe070cfe	-0.1318855
17	0xbd9ba4cc	-0.07599792
18	0xbdad0b0f	-0.08449375
19	0xbdce0f15	-0.100614704
20	0xbe23e83f	-0.16006564
21	0xbc26af65	-0.010173653
22	0xbe75f7c2	-0.24020293
23	0xbee3ec87	-0.44516394
24	0xbdeb2561	-0.11481739
25	0xbdf0376d	-0.11729322
26	0xbe268e26	-0.16265163
27	0xbe2120d2	-0.15735176
28	0xbd7d5060	-0.06184423
29	0xbdc63289	-0.096776076
30	0xbdccd230	-0.100010276
31	0xbe6e383f	-0.23263644
32	0xbdf7ba6b	-0.12096103
33	0xbe1f2001	-0.15539552
34	0xbe532f69	-0.20623554
35	0xbe3df413	-0.18550138
36	0xbdd93991	-0.10606683
37	0xbe108a93	-0.14115362
38	0x3e386084	0.18005568
39	0xbe4a9399	-0.19782867
40	0xbe4255fb	-0.18978111
41	0xbe7332d1	-0.23749854
42	0xbe49dbc6	-0.19712743
43	0xbe35d025	-0.17755182
44	0xbe0a80b5	-0.1352566
45	0xbe0acd58	-0.13554895
46	0xbdfa9c0d	-0.122367956
47	0xbe736599	-0.23769225
48	0xbe32daba	-0.1746625
49	0xbe4bd76b	-0.19906394
50	0xbdfa16e7	-0.122113995
51	0xbdac2b38	-0.08406681
52	0xbe38865a	-0.18020001
53	0xbe856dd1	-0.26060346
54	0xbe23814a	-0.15967289
55	0xbe291b73	-0.16514377
56	0xbd8a3ac2	-0.067494884
57	0xbe431548	-0.19051087
58	0xbe067c0b	-0.13133256
59	0xbe50a6fd	-0.20376201
60	0xbe46147b	-0.1934375
61	0xbe327c4b	-0.17430227
62	0xbe2a9a51	-0.1666043
63	0xbe847fb2	-0.25878674
64	0xbe4ebb9f	-0.2018876
65	0xbe18b3b1	-0.14912297
66	0xbe02fca6	-0.1279169
67	0xbe1c7c66	-0.15281829
68	0xbdc7967e	-0.09745501
69	0xbe0b972a	-0.13631883
70	0xbe0af5d9	-0.13570346
71	0xbe5e9ad0	-0.21738744
72	0xbe2e08b4	-0.16995507
73	0xbf014800	-0.5050049
74	0xbe60f2d2	-0.21967629
75	0xbde7d546	-0.113199756
76	0xbe12b010	-0.14324975
77	0xbe8dfb6c	-0.27730882
78	0xbdc48086	-0.095948264
79	0xbe482c12	-0.19548061
80	0xbde517c4	-0.111861736
81	0xbd37af3f	-0.044844862
82	0xbe710ab1	-0.23539235
83	0xbe719c4c	-0.23594779
84	0xbe4fe3ea	-0.20301786
85	0xbe37a15f	-0.17932652
86	0xbe1fdf4c	-0.15612525
87	0xbe59e51f	-0.21278809
88	0xbdd610ea	-0.10452445
89	0xbedfe95e	-0.43732733
90	0xbebcac50	-0.36850214
91	0xbdf3470f	-0.11878788
92	0xbe418e7f	-0.18902014
93	0xbe5fcfca	-0.21856609
94	0xbeca10bb	-0.3946589
95	0xbde0da7f	-0.10979175
96	0xbe2446dc	-0.16042656
97	0xbe221966	-0.15830001
98	0xbda29d2f	-0.07940137
99	0xbe4ad329	-0.19807114

StatefulPartitionedCall/model/dense_1/MatMul/ReadVariableOp:0 f4 [100, 100]
0	0x3e024799	0.12722625
1	0xbe5072af	-0.20356248
2	0x3e69412e	0.2277877
3	0xbda8d183	-0.08243086
4	0x3b5b3910	0.003345076
5	0xbd433c48	-0.04766491
6	0xbc18e424	-0.009331737
7	0x3d5eac9c	0.054363832
8	0x3e05567a	0.1302127
9	0x3df5fa90	0.12010682
10	0xbdd8fffb	-0.105956994
11	0xbe6cc109	-0.23120512
12	0x3dfd1ef9	0.12359423
13	0xbe11b7a4	-0.1423021
14	0xbdcda1f0	-0.10040653
15	0xbe00a8ea	-0.12564436
16	0x3cd5933f	0.026071189
17	0xbad704e0	-0.0016404651
18	0xbe49480f	-0.19656394
19	0xbe130f22	-0.14361241
20	0xbd98f832	-0.074692145
21	0x3dab05a5	0.08350686
22	0x3b101360	0.0021984205
23	0x3e2d84c1	0.16945173
24	0x3dad8ab0	0.08473718
25	0x3d25201c	0.040313825
26	0x3c45b936	0.0120680835
27	0xbd4feeab	-0.05076472
28	0xbe0171b0	-0.12641025
29	0xbdd41e9b	-0.103574
30	0xbc71d774	-0.014760841
31	0xbe52c1e3	-0.20581774
32	0x3c219f6e	0.009864671
33	0x3c50fc57	0.012755475
34	0x3d70c313	0.058779787
35	0x3d683f78	0.056701154
36	0xbdbfd1f7	-0.093662195
37	0x3dad5ccc	0.08464965
38	0x3d9978d9	0.07493753
39	0xbd408d55	-0.047009785
40	0x3dcf119b	0.1011078
41	0xbd402b83	-0.046916496
42	0xbd7ff860	-0.06249273
43	0xbe50ba14	-0.20383483
44	0x3e1647b3	0.14675789
45	0xbddbb9a2	-0.10728766
46	0xbdc1f1bb	-0.094699346
47	0xbd95ffb0	-0.07324159
48	0x3e025525	0.12727793
49	0xbe699aaa	-0.22812906
50	0xbe35d4ed	-0.17757006
51	0x3deaaecf	0.11459123
52	0xbe97732d	-0.2958006
53	0x3db344d0	0.08753359
54	0xbc0313d9	-0.0080003375
55	0x3bafbefe	0.005363344
56	0xbe378315	-0.17921098
57	0x3e394e30	0.18096232
58	0x3d9e16fd	0.077192284
59	0xbe829e8d	-0.2551159
60	0x3ce0ef7a	0.027457941
61	0x3d415eb5	0.04720946
62	0x3dfe38a5	0.12413148
63	0x3dd16bb2	0.102256194
64	0x3e0f08ae	0.13968155
65	0x3e2f0efe	0.17095563
66	0x3e5955e6	0.21224174
67	0x3d8796a8	0.06620532
68	0x3e039b14	0.12852126
69	0xbcd20a91	-0.025639804
70	0x3cb4de7b	0.022078743
71	0x3da8f7f3	0.082504176
72	0xbe85da62	-0.26143175
73	0xbdc4f87c	-0.09617707
74	0x3dc6a90a	0.097002104
75	0xbd189c57	-0.037258472
76	0xbd915739	-0.070967145
77	0xbcd2e8d6	-0.02574579
78	0x3c5541af	0.0130161485
79	0x3ddb9d0a	0.10723312
80	0xbe255400	-0.16145325
81	0x3e1bd198	0.15216672
82	0xbe1d3e73	-0.15355854
83	0xbe18be78	-0.14916408
84	0xbd5569b5	-0.052102763
85	0x3d633d07	0.055478122
86	0x3df604c6	0.12012629
87	0x3d5199ea	0.051172175
88	0xbb75ce42	-0.0037506972
89	0x3e6adde5	0.22936209
90	0x3ded26d1	0.11579669
91	0xbe7979da	-0.24362889
92	0x3c8d95c1	0.017283322
93	0xbe3048d0	-0.17215276
94	0xbe10264d	-0.1407711
95	0xbde04151	-0.10949958
96	0xbe0de6f7	-0.13857637
97	0xbe476195	-0.19470818
98	0x3c86f181	0.01647258
99	0xbe2b9b8b	-0.16758554
100	0x3e1b89d9	0.15189303
101	0xbe84bcd5	-0.25925317
102	0xbd752247	-0.059847143
103	0xbc782a7d	-0.015146849
104	0xbdff0c7b	-0.12453552
105	0x3e56ce54	0.20977145
106	0xbe7e978c	-0.24862498
107	0x3df6f98e	0.120593175
108	0xbacdb6cf	-0.001569474
109	0xbce21f90	-0.02760294
110	0xbe65500d	-0.22393818
111	0x3d4a9a2b	0.049463432
112	0x3e17eeba	0.1483716
113	0xbd9bb376	-0.07602589
114	0xbe06e479	-0.13173093
115	0xbc618aca	-0.013766
116	0xbe1e3b19	-0.15452231
117	0x3e7d79e6	0.24753532
118	0x3dc6d74d	0.09709034
119	0x3d03f068	0.03221169
120	0xbda2422e	-0.07922779
121	0x3cae3e4a	0.021269936
122	0x3cb86e5c	0.022513561
123	0xbe46f2e4	-0.19428593
124	0xbe1261ac	-0.14295071
125	0x3e24507b	0.16046326
126	0x3d67dbd4	0.05660613
127	0x3e352fa8	0.1769396
128	0xbe248edc	-0.16070122
129	0xbdfa9cc8	-0.12236935
130	0xbe610005	-0.21972664
131	0x3e2cd5e3	0.16878466
132	0xbd62b388	-0.055346996
133	0x3d066b70	0.032817304
134	0x3a6222d9	0.00086264085
135	0x3df3a111	0.11895955
136	0xbd8ade0c	-0.06780633
137	0x3e46f3cf	0.19428943
138	0xbdb7d1a5	-0.089755334
139	0xbe058515	-0.13039048
140	0xbe0d498d	-0.13797589
141	0x3e402d2e	0.18767235
142	0x3e2c59ee	0.1683118
143	0x3e0eb298	0.13935316
144	0x3dc20720	0.09474015
145	0xbd7c1e17	-0.061552133
146	0xbe6f5adf	-0.23374508
147	0xbdeb4e6a	-0.11489566
148	0x3e19b45b	0.15010206
149	0xbdc131ec	-0.0943335
150	0xbdeaa935	-0.11458055
151	0xbe08c957	-0.13358055
152	0xbeb20064	-0.34765923
153	0xbcc8f87b	-0.024532547
154	0xbdeceed6	-0.11568992
155	0xbd177182	-0.036973484
156	0x3dbeb139	0.09311146
157	0x3d9ec463	0.077523015
158	0xbe397cac	-0.18113965
159	0x3e6210c7	0.22076713
160	0xbe00de04	-0.12584692
161	0xbe822373	-0.2541767
162	0xbddaf3e4	-0.1069105
163	0xbe3830e2	-0.17987397
164	0xbda1888a	-0.07887371
165	0x3d33598c	0.04378657
166	0x3d931ea3	0.07183578
167	0xbe2d559c	-0.16927189
168	0x3d449fd0	0.04800397
169	0x3e338afe	0.1753349
170	0x3d965739	0.07340855
171	0xbe10f8b2	-0.1415737
172	0xbe127a6b	-0.14304511
173	0xbe4afaa6	-0.19822177
174	0xbe9f9d87	-0.3117487
175	0x3e636c03	0.22209172
176	0x3dcd32c5	0.10019449
177	0x3e203dcb	0.15648572
178	0x3de12c81	0.109948166
179	0xbdc775c0	-0.09739256
180	0xbce6d8c9	-0.028179543
181	0xbcec2687	-0.028826965
182	0x3df2edec	0.11861786
183	0xbe4be0c1	-0.19909956
184	0xbc14b97d	-0.009077427
185	0xbe2911ff	-0.16510771
186	0x3e776d65	0.24162824
187	0x3df20d25	0.11818913
188	0xbde600a3	-0.1123059
189	0xbe65b201	-0.22431184
190	0x3e2d2057	0.16906868
191	0xbe331434	-0.17488176
192	0x3e08ab0b	0.13346498
193	0x3da47afe	0.080312714
194	0x3e02fa3e	0.12790772
195	0xbd754f10	-0.059889853
196	0x3cf155b3	0.02945981
197	0xbd89398c	-0.06700429
198	0xbe51660d	-0.20449086
199	0xbd5c7ce2	-0.053830035
200	0x3e2298e2	0.15878633
201	0xbe01cdff	-0.12676238
202	0x3e22505f	0.15850972
203	0x3c83d7b0	0.016094059
204	0xbdceae27	-0.10091811
205	0xbe18f899	-0.14938582
206	0x3da7865d	0.08179925
207	0x3daeedf7	0.08541482
208	0x3da9f3bd	0.082984425
209	0xbdc56886	-0.09639077
210	0xbd9ecb9f	-0.077536814
211	0x3e004891	0.12527682
212	0x3e490cb8	0.19633758
213	0xbda10d0f	-0.07863819
214	0xbe09be84	-0.13451582
215	0xbe121814	-0.14266998
216	0x3de067cf	0.109573
217	0xbe3a36d1	-0.18184973
218	0x3db34833	0.08754005
219	0xbe16c0a2	-0.14721921
220	0xbe013263	-0.12616877
221	0x3dba2e63	0.09090879
222	0x3dd0cf1c	0.10195753
223	0x3e6036f8	0.21895969
224	0x3dc3cbf7	0.095603876
225	0x3dadf8e1	0.084947355
226	0xbd0c857f	-0.034307
227	0xbe5dd199	-0.21661986
228	0x3e5b88c8	0.21438897
229	0x3de006fd	0.10938833
230	0x393a55e4	0.00017770339
231	0x3da0425b	0.07825156
232	0x3dc044a8	0.09388095
233	0x3e31fdde	0.17381999
234	0xbd414fa4	-0.04719509
235	0xbddefb56	-0.10887782
236	0xbe6d2b51	-0.23161055
237	0xbe60ccfa	-0.21953192
238	0xbe190b9f	-0.1494584
239	0x3e1dc5b1	0.15407445
240	0xbb547f78	-0.003242461
241	0x3dda28ab	0.10652288
242	0x3d7a707b	0.061142426
243	0xbe114c0a	-0.14189163
244	0x3e632270	0.22181106
245	0x3de0111a	0.10940762
246	0xbdf9681f	-0.12178063
247	0xbde95525	-0.11393193
248	0x3da8650b	0.082223974
249	0xbe4007b9	-0.18752946
250	0x3db1bbe3	0.08678415
251	0x3e311cfa	0.1729621
252	0x3dc917e3	0.09819009
253	0xbde1ac79	-0.11019225
254	0x3de5be83	0.11217978
255	0xbe370164	-0.17871624
