crab/minitree/Onnx_Model/model12Down.onnx (onnx, 239313 bytes, 14 tensors)

StatefulPartitionedCall/model/tdist_2/dense_2/MatMul/ReadVariableOp:0 f4 [100, 128]
00000000: 208e 12be 156d c83d d8f2 8ebe 831f 9dbd
00000010: 9073 913d a63f b9be 2aa2 46bd bff5 df3d
00000020: 6ee4 3f3e 3e69 073c 2281 973d 464f 9e3d
00000030: 54f5 70bc 642e 873a 9625 7d3d 154e c2be
00000040: f32d 003e ec47 a63d 2503 2ebd f4f7 03be
00000050: 2540 88be 2385 723d f012 e8be 45ad 393d
00000060: 2212 9bbe 25d6 dd3d cc63 25be 6e2d 643d
00000070: 6fe5 a43d 5d1f 48be 80d8 40be adbe eebd
00000080: 7453 383e 6535 75be 3880 893c 8fa6 8fbe
00000090: e3b9 1a3d 27bf 30bd b963 a0be 917f 46bd
000000a0: eaee c13d e379 35bc 6282 77be d96e 67be
000000b0: 72f9 303c e3ef 92bd bc81 e1bd 1dd9 5b3e
000000c0: ef14 f3be 588c dbbd 979f 203d eed1 a33c
000000d0: 1e6b 1b3d 0679 05be 9983 efbd 239c b83d
000000e0: c8c5 5abc 288f 5a3d 9f6b 15be c997 7dbe
000000f0: f2d5 d73d 7769 86bd ac1f 3bbe 5bee 60bd
00000100: e58f ab3c e6b1 9c3d 21a3 80bd 1bb6 703e
00000110: c01f 75bc 3de8 9cbd 1ddb 1a3e 4cdf 3dbe
00000120: 68a5 c9bd 9826 9fbd 11d7 2fbe b166 e03d
00000130: cf7b 573c fed6 97bd c396 3f3e 9d99 283e
00000140: 6d13 d33d ce19 b43d 6e8f ddbd b871 20bf
00000150: 8998 403e b6ef 34be b5cb 89be 9555 d73d
00000160: b79e b5be ee2b e2bb 8afd b33d 8f73 46be
00000170: 6e08 80be 5ca4 663d 71cc 033c 89b3 6c3e
00000180: f878 47be 61f7 bd3d 8341 1fbe 0948 2abe
00000190: abce 66be 0a6e e13d db57 02bd eff1 ffbd
000001a0: 9a4f be3d 568b 6c3e 830f 0839 5fad 1dbe
000001b0: 4bcd d1bd 6d83 5abf 3a32 72be 63bf 833e
000001c0: 2190 a53d 3718 cbbe 67d9 a5be 321f 73bc
000001d0: 9568 e1bd c362 ab3c 2d1d 28bf 7e5f bf3b
000001e0: 8086 a2be 8870 a83c 0c22 7dbe 0489 cd3b
000001f0: 54b3 88be 6461 763e 99ac 81be ca16 dcbd
00000200: 3bae 4b3d 6c8f f93c 561e 2a3e 32f7 1e3e
00000210: b27e 0fbd 6418 4fbe 4253 0bbe 7696 cc3d
00000220: 1b3a 0e3e 9383 573e 6375 023e d56d f13d
00000230: 2d90 1c3e 096a 3dbe 8298 013e 22b2 383e
00000240: 361f 123e 2890 4c3e 04c7 26be 37f5 a1bd
00000250: 46b3 4e3a fdc6 a7bd a8fa 603e 7508 19be
00000260: 2874 1ebd 9dc0 eabb e51e d83d 0663 c13d
00000270: 7925 183e 008b 00be 8445 2fbe b9f5 44bd
00000280: e797 22be 4840 d03c 05b8 16bc 3885 923d
00000290: baef 433e 98d6 82bd d3bf 2c3d d99e 8e3e
000002a0: 570d ae3d bae6 263e e33b 67be 78c3 b53c
000002b0: 9009 3f3e c9fe 743e 168c 933d ca8e f2bd
000002c0: d08f 40be 3487 43be f8a8 c23d 9472 e63c
000002d0: 06f1 45bd 005e a6bc fbf3 eebd 33a9 993e
000002e0: 1efc fcbc 47fe babd eb86 933d 8a96 053e
000002f0: 5396 4cbc 2676 fbbd 0754 9b3d e836 c9bd
00000300: fbb7 ed3d b06e 8dbd e5c1 233e 456c 16be
00000310: 01ce 91bc 88bd 383d 3792 3cbe 21c5 4b3e
00000320: 736b 213e 5027 6b3e bb7e 63bd c590 013e
00000330: e7d7 4ebe a54f 233e c75d 193d 8241 2f3e
00000340: 2bde dfbc 1c02 073e aea8 17bd 3056 663e
00000350: 6ec0 0bbe bb80 20bc deb8 543c ef52 233e
00000360: 61d8 893e 572d 21be 527f 5bbe 3b70 babd
00000370: fbb5 6ebe 90a2 603e 2695 cfbd 9dbd a7bd
00000380: 988c c5bc 132d 3bbe ecbe bcbd 060c 093d
00000390: fbc5 723e d131 53be 739b 31be 4a67 a83d
000003a0: 0a64 4c3e 2528 643e 76e0 adbd 7939 6c3e
000003b0: 9b6a 163e add4 7ebc e804 0cbd 12e7 663d
000003c0: 67b5 dcbd fca5 1b3e f55f 293d f4de c7bd
000003d0: d929 953c 2144 9dbd 49f2 03be 054d 9cbd
000003e0: 94e6 74be 1bc1 673e cdc4 c6bd 178c 1e3e
000003f0: 4de1 2d3e 8d0c 95be 5b64 073d bbbd 41be
-0.14312029 0.09786431 -0.2791965 -0.07672026 0.0710212 -0.36181372 -0.048494495 0.10935544
0.18739483 0.008264838 0.07397677 0.07729964 -0.014706928 0.0010313508 0.061803423 -0.37950197
0.12517528 0.08119187 -0.042483468 -0.12887555 -0.26611438 0.059209 -0.45326948 0.04533126
-0.30287272 0.108318605 -0.1615135 0.055707388 0.080515735 -0.19543214 -0.18832588 -0.11657462
0.18000585 -0.2394615 0.016784772 -0.28056762 0.03777493 -0.043151047 -0.31326082 -0.0484615
0.09469397 -0.011076423 -0.24170831 -0.22600879 0.01080166 -0.07174661 -0.11011073 0.21469541
-0.4747691 -0.10720128 0.039214697 0.019997563 0.03794395 -0.13034448 -0.11695022 0.09014156
-0.013352819 0.05335918 -0.14591835 -0.24764933 0.10538854 -0.065630846 -0.182738 -0.054914813
0.020942638 0.07651119 -0.06281114 0.23506968 -0.014961183 -0.076614834 0.15122648 -0.18542212
-0.09846002 -0.07771033 -0.17171885 0.10957087 0.013152077 -0.074140534 0.18709855 0.16464849
0.103064395 0.08793984 -0.10818373 -0.6267352 0.18808188 -0.17669567 -0.2691323 0.1051437
-0.35472652 -0.0069022095 0.08788593 -0.1938002 -0.2500643 0.05630909 0.008044348 0.23115362
-0.1947974 0.092756994 -0.15552334 -0.16629042 -0.22539775 0.110073164 -0.031822067 -0.12497317
0.092925265 0.23100027 0.00012975749 -0.15398167 -0.10244235 -0.8535679 -0.23651972 0.25731954
0.08084131 -0.39666912 -0.32392427 -0.0148389805 -0.110062756 0.020921117 -0.6566952 0.005840241
-0.3174324 0.020561472 -0.24720019 0.006272437 -0.26699317 0.24060589 -0.25326994 -0.10746534
0.049726706 0.030463897 0.16613135 0.15523985 -0.035032935 -0.20224148 -0.13605979 0.09989636
0.13889353 0.21046285 0.12740092 0.11788527 0.15289374 -0.1849748 0.12655833 0.18036702
0.14269719 0.19976866 -0.16286856 -0.07908099 0.000788499 -0.08192251 0.21970618 -0.14944632
-0.038684994 -0.0071640746 0.10552768 0.09442715 0.14858045 -0.12553024 -0.17116362 -0.048085902
-0.15878259 0.025421277 -0.009199147 0.07154316 0.19134417 -0.06388587 0.042175125 0.27855566
0.08498638 0.16298953 -0.22581439 0.022187933 0.18655992 0.23925318 0.07204454 -0.11843641
-0.1880486 -0.19094545 0.095048845 0.028130807 -0.04832556 -0.020308495 -0.11667629 0.300119
-0.030881938 -0.09130531 0.07203468 0.13045707 -0.012487012 -0.122783944 0.07584386 -0.09824926
0.11607357 -0.069058776 0.15991934 -0.14689739 -0.017798426 0.045102626 -0.18415152 0.19899417
0.15763645 0.22964215 -0.05554078 0.12652881 -0.20199548 0.1594835 0.03744295 0.17114833
-0.027327618 0.13184398 -0.0370261 0.22493815 -0.13647625 -0.009796317 0.012983529 0.15949605
0.26922897 -0.15739952 -0.21435288 -0.091034375 -0.23311608 0.21937013 -0.1013587 -0.08190463
-0.024114892 -0.18278913 -0.09216103 0.033458732 0.23708336 -0.20624472 -0.17344455 0.08222826
0.19960037 0.22280939 -0.08490078 0.23068799 0.14689104 -0.015553636 -0.034184366 0.05637271
-0.10776787 0.15200037 0.041351277 -0.09759322 0.018208431 -0.0767901 -0.12885393 -0.07631878
-0.23916084 0.22632258 -0.097055055 0.15483128 0.16980477 -0.29111138 0.03305469 -0.18920033

StatefulPartitionedCall/model/tdist_2/dense_2/BiasAdd/ReadVariableOp:0 f4 [128]
00000000: 00ac 86bd c307 91bd 6020 f7bd 57b7 4dbe
00000010: 48e4 d9be 94f9 0cbe 6507 0dbd 3355 b1be
00000020: d1e5 91bd 2e8b 01be d836 28be a0d9 e2bd
00000030: 27c4 4cbe 23ba c13d 22ef 1fbe 3a35 9dbd
00000040: da95 8dbe 3df7 ecbd b7a6 1fbe 5e15 eabe
00000050: 9ebb 6bbe 1145 b43d c2ab 5bbd 6af8 ddbd
00000060: 38f6 80be d65c e1bd 87b6 42bd 1720 b6bd
00000070: 265e 13bd be79 88bd e6c0 06be 8b61 cfbd
00000080: 864c 113e 5e62 7ebd 2b8f f0bd 898a a6be
00000090: 9488 b5bd d101 27be 0f32 9dbe ce51 66bd
000000a0: eb23 2cbe 37b0 e1bd daa8 96bd ef5a a0bd
000000b0: f722 debd c8ab aabd 5748 5abe 8c63 063e
000000c0: 2489 a1be 80c5 333d 8117 18be f84b aebd
000000d0: 1bc5 f3bd 9bbd 2dbd df4b 31be efad c2bd
000000e0: bfb2 86bd 7b08 ac3d b72c 20be 2d50 c7bd
000000f0: 6588 cbbd 93ad efbd d85a fabd 6b78 0dbe
00000100: e161 39bd 9004 65bd fa45 ecbc 65ef b53c
00000110: e00c 3abe 32cd 9abd dcc2 a0bd b07f 8abd
00000120: 9bc2 14bd dfb4 77be dcb1 1abe 1079 7bbd
00000130: 5a0d b9bd 6e54 93bd 1869 57be 85a5 a3bd
00000140: 8b8d 32be b81f b0bd 1ad5 06be 3806 28be
00000150: 0d73 b3bd 0d69 0cbe 3f64 aebd 7b82 b4bd
00000160: b19b adbd fafe cbbd de4b 09be 1b50 05be
00000170: 80d6 ae3d 2512 20be 70b6 26be af28 213e
00000180: 53a0 09be 7e0f e9bd 88d6 30be 8e3e 97be
00000190: 739c 23be f504 12be 2e25 b8bb 5dab bbbd
000001a0: eeb3 3dbd 3a82 de3d cac4 f0bd 6165 06be
000001b0: 0d36 fe3b 9c6f 84be 6284 0fbe eaea 633d
000001c0: c1b5 ecbd 6893 22be 8a67 bcbe 7f28 3dbd
000001d0: 2af4 dabd 42f7 05be 2658 38be d3e8 17be
000001e0: db1b 09bd 4c93 c8bd 4def 70bd 7a6f 0cbe
000001f0: 1e3a a0bd c48e 993d 1834 81bd ef94 6cbd
-0.06575775 -0.070815586 -0.12066722 -0.2008947 -0.42556977 -0.13767081 -0.03443088 -0.34635314
-0.07123912 -0.12650749 -0.16427171 -0.11076665 -0.19996701 0.09459331 -0.15618566 -0.07676168
-0.2765339 -0.115705945 -0.1559094 -0.45719427 -0.23020789 0.08802236 -0.053630598 -0.10838397
-0.2518785 -0.11004035 -0.047537353 -0.088928394 -0.03597846 -0.066638455 -0.13159522 -0.10126027
0.14189348 -0.06210553 -0.11746057 -0.3252757 -0.08863941 -0.16309287 -0.30702254 -0.05623036
-0.16810577 -0.110199384 -0.07356425 -0.07829844 -0.10846513 -0.08333546 -0.21316658 0.13123912
-0.31549942 0.043889523 -0.14852716 -0.08510584 -0.11902829 -0.04241715 -0.17314099 -0.095058315
-0.06577062 0.08400055 -0.15642057 -0.09732089 -0.099381246 -0.117030285 -0.12224358 -0.13815467
-0.04525936 -0.055912554 -0.028841961 0.022208879 -0.18168974 -0.07558669 -0.078496665 -0.06762636
-0.036318403 -0.2419009 -0.1510691 -0.06139475 -0.0903575 -0.07193838 -0.21036184 -0.07990555
-0.17436807 -0.085998 -0.1316723 -0.16408622 -0.087621786 -0.13711949 -0.08515214 -0.0881395
-0.084769614 -0.09960742 -0.13407847 -0.13018839 0.085370064 -0.15631922 -0.16280532 0.15738176
-0.13440065 -0.11379908 -0.17269337 -0.29539913 -0.1597765 -0.14259703 -0.0056196665 -0.09163544
-0.046314172 0.108646825 -0.117562845 -0.1312461 0.007757908 -0.258664 -0.14015344 0.055643953
-0.11558104 -0.15876544 -0.36797744 -0.0461812 -0.10691102 -0.13082603 -0.18002376 -0.14834909
-0.03347383 -0.0979372 -0.058821965 -0.137144 -0.07823585 0.074979335 -0.06308764 -0.05775922

StatefulPartitionedCall/model/tdist_1/dense_1/MatMul/ReadVariableOp:0 f4 [100, 100]
00000000: b445 7cbf ac0e 8dbd ca73 80be 5b48 8cbe
00000010: 80fb 833e 71d1 7dbd 921d 803d 4634 673d
00000020: 00bc c9bd 95fa 183e bb34 b6bd 473f 84be
00000030: a1e8 9e3e 857b 313e a373 0a3e 2bad eb3c
00000040: 8d27 a2bc cd42 13bd 1d03 09be 4c88 f5bd
00000050: 8ff5 fabe 30e3 8abe 6d93 8ebe 4a0d 103d
00000060: 68c3 5fbe 6ee5 cb3e e4ad adbe ee92 60bd
00000070: 6dd7 da3b 033b 05bc 1469 973c 595a 623e
00000080: e91b 03be 3592 7ebe 142f 9fbc 60dd 1fbe
00000090: cf17 cabd 80d3 c0be 4af1 193e b1b1 df3c
000000a0: ff10 35be 9772 ce3d ad3a fd3d 0f70 b6bd
000000b0: 6a24 3cbe dd8e 3a3e 5cce 4f3b 7803 033e
000000c0: db13 64be 9173 84bd 2a78 04bf 3600 c2be
000000d0: 9d52 463e bdec 5bbe ce20 083e bd58 3cbc
000000e0: 03bd 49be 99f5 be3e 3494 b03e 7f34 a2be
000000f0: 1a5b b9bd 6997 40be d40e e1bd 6cfe cb3c
00000100: b84b cb3c 05e8 a5bd 8152 693c 92bf eabe
00000110: dc98 b8bd c008 603e 9d97 913d 7e1d d13d
00000120: 4fe1 8ebe 042b 71be 8f81 14bd 0a1d 08be
00000130: 219a 65be 62d9 38be 23f9 e43d aebc 20bd
00000140: 916f 3ebe 4096 10bf 26ea 2ebe 3fc7 7abe
00000150: 18cc f13c 0a8a 403e 1e16 2b3e 6290 51bd
00000160: 6ef6 88be f2c9 6b3d f2a4 bdbd 3aaf 86be
00000170: 6cc3 57be 2554 15be 0918 3dbe eb86 e3bd
00000180: 1e22 6fbc cff4 dcbd d505 de3d 29df cf3d
00000190: e2bc 38bc 9352 8c3d eb4b 05be e5c1 093f
000001a0: f89b cc37 beaa b1be 9ccd 79be 0a8d 9d3d
000001b0: a12a 273e 5799 44be b104 72bb 766d b5be
000001c0: e85c 963d bd66 4c3e d350 dcbd 8c8f 31bc
000001d0: 1d87 083e bfbe 09be b81b 483d 3b2c 053e
000001e0: 6586 d43e b68d 8abe f744 f13d 53ac 1a3e
000001f0: 1598 8bbe 9afe 853e 439e b1be bcda ee3d
00000200: 383e 9cbe 9e3b 8a3c 2a99 2f3e e306 973e
00000210: a731 9abe c366 1cbe 0228 153e 18af 7f3d
00000220: 9cab 6ebe 1440 ec3d 78e2 1ebe 60f7 2fbe
00000230: 5ead 1b3e 0519 a1bd f03d 40be 3a4f 7b3d
00000240: 2d40 4c3c 5581 43bc 9edb 4dbe 9295 13bc
00000250: 2320 2bbe 67a7 36be 3305 58bd bea8 463d
00000260: b5a1 743e cffb 93bd 895e 483e c66a 183d
00000270: e595 2c3e ead3 b5bb b7d6 b1bc 5ba3 84be
00000280: 6e0a 0bbe c07c e03d b177 43be 9c53 73be
00000290: 2d90 69be e1eb 6dbe 9b18 593e e763 cdbe
000002a0: d33d 85be 5ee4 b53e d9ce 243d cf5c 01be
000002b0: 78bd bd3d 21a1 1ebd 9e3f 2b3f d5bc e0bc
000002c0: 149e 143e a7f8 55bd 9b2d 103e a7ce 02bf
000002d0: e10a 8c3e 54d3 efbd 69f1 e2bd a694 c73d
000002e0: 1e17 293e 084e 19be 2fe3 f3bd b38a 2ebd
000002f0: bb9a 28be f4d5 993d c40f 5d3e 9246 debc
00000300: 39b4 b33d 40fb f0bd 420d 393d 86d8 c6be
00000310: 0d9a c23d 11e7 83be 51f3 8bbe 34e9 f7bd
00000320: 7eb6 e5be 1baf b33d ddcd 373e 1228 403e
00000330: 3999 843d 2834 b3bc b0a4 39bd a60d 02be
00000340: b93c b5be d799 95be c0a2 6b3e c658 123e
00000350: 14df 7a3e 73b4 54bd 8358 433e fea1 ed3d
00000360: c413 22be 65b0 813e c706 dcbc fc2f 4fbe
00000370: aef2 2abf 9a1b bd3d 1052 4fbe dd68 71be
00000380: fcee 6b3e a3c5 a6bd 2b30 ab3e bc3d 41be
00000390: 5cc6 993e 3bbf acbe 6661 f0bd 0aea 7d3d
000003a0: 5fdb e8bd ddad 5b3e 8fb2 42be cf73 633d
000003b0: 4cc0 7fbe 2e3d 7cbe f5c6 473e 8aff c0be
000003c0: a2de cabe 6416 78be 5a63 dfbd 3b25 73ba
000003d0: 383e 8a3e 1824 b13c 2dd6 18be 791f c2be
000003e0: 9556 573e 277c 913d 5c39 ad3d d0a2 ebbe
000003f0: 91b1 2bbc 5da2 5a3e c26b 8b3d c35b d9be
-0.9854386 -0.06887564 -0.2508834 -0.27398953 0.25777817 -0.061967317 0.0625564 0.056446336
-0.09850311 0.1493934 -0.08896776 -0.25829527 0.31036857 0.17332275 0.13520674 0.028769096
-0.01979425 -0.035952378 -0.13380094 -0.11988887 -0.4901547 -0.27126455 -0.27846852 0.035168923
-0.21851885 0.39823478 -0.3392173 -0.054827623 0.006678513 -0.008131745 0.018482722 0.22104777
-0.12803616 -0.24860461 -0.019431628 -0.15611792 -0.098678224 -0.37661362 0.1503345 0.02730641
-0.17682265 0.1008045 0.12364707 -0.08908092 -0.18373266 0.1821856 0.0031708693 0.12794292
-0.222732 -0.06467355 -0.51745856 -0.37890786 0.19367452 -0.21477027 0.13293764 -0.011495766
-0.19701008 0.3729675 0.3448807 -0.31680676 -0.09050579 -0.18807758 -0.10989156 0.024901591
0.024816379 -0.08100895 0.014240862 -0.45849282 -0.090135306 0.21878338 0.07108996 0.10210703
-0.27906272 -0.23551565 -0.03625637 -0.13292328 -0.22422077 -0.18051675 0.111803316 -0.03924244
-0.18597247 -0.56479263 -0.17081508 -0.24490069 0.029516265 0.18802658 0.16707656 -0.051163085
-0.2675051 0.057565637 -0.092599764 -0.26305562 -0.21070641 -0.1458288 -0.184662 -0.11109718
-0.0145955365 -0.10788881 0.10840956 0.10149986 -0.011275502 0.06851687 -0.13017242 0.53811485
2.4391324e-05 -0.34700578 -0.2439484 0.07692917 0.16324855 -0.1919912 -0.0036929066 -0.35435075
0.07341939 0.19961067 -0.107576035 -0.010837447 0.13332792 -0.1345167 0.04885456 0.13005154
0.41508785 -0.27061242 0.11780732 0.15104799 -0.27264467 0.26170808 -0.34691057 0.11662814
-0.3051622 0.01687413 0.17148271 0.29497442 -0.30116007 -0.15273575 0.14566043 0.06242284
-0.23307651 0.115356594 -0.15516078 -0.1718421 0.15202853 -0.078661 -0.18773627 0.061354853
0.012466473 -0.011932691 -0.20103309 -0.009007828 -0.16711478 -0.17837296 -0.052739333 0.04850077
0.23889811 -0.07225763 0.19567312 0.037211202 0.16854055 -0.0055489438 -0.02170883 -0.2590588
-0.13578197 0.10961294 -0.19088627 -0.23762363 -0.22808905 -0.23234512 0.21200792 -0.40115282
-0.2602373 0.35525793 0.040236328 -0.1263306 0.09264654 -0.038727883 0.6689395 -0.027433792
0.14513427 -0.052239086 0.14079897 -0.51096576 0.2735205 -0.117102295 -0.110812016 0.09745149
0.16512725 -0.14971173 -0.11908566 -0.042612743 -0.16465275 0.075115114 0.21588045 -0.02713326
0.08774609 -0.11766672 0.04517866 -0.3883707 0.09502039 -0.25762227 -0.27334073 -0.12105027
-0.44865793 0.08773633 0.17949624 0.18765286 0.064745374 -0.021875456 -0.045323074 -0.12700519
-0.3539789 -0.29218933 0.23011303 0.14291677 0.2449916 -0.051929902 0.19076733 0.11603163
-0.15827852 0.2532989 -0.0268587 -0.20233148 -0.6677655 0.0923378 -0.20246148 -0.23575158
0.23040384 -0.08143165 0.33435187 -0.18871206 0.3003415 -0.33739647 -0.11737327 0.061990775
-0.11369967 0.21453042 -0.19013427 0.055530366 -0.24975699 -0.24632713 0.1950949 -0.3769496
-0.3962298 -0.24227291 -0.10907622 -0.0009275262 0.27000594 0.021623656 -0.14925452 -0.37914637
0.21029122 0.07103758 0.08458206 -0.46022654 -0.010479347 0.21350999 0.068076625 -0.4245282

StatefulPartitionedCall/model/tdist_1/dense_1/BiasAdd/ReadVariableOp:0 f4 [100]
00000000: 1fa0 d43d e985 96bb 283b 56bd 94f2 9cbe
00000010: 3ca6 41be f325 8ebd 0000 0000 8e9a 57bd
00000020: 3fd8 09be 848f b0bd 63c1 9cbe 2f73 88bc
00000030: 1498 15be 8ba6 18bd 79cd eabc 9039 94bd
00000040: 8b38 49bd adb3 27be a825 dbbc 26f3 57bd
00000050: 04a9 e43c c495 bbbb f871 ebbd 513d ccbc
00000060: 0eeb 36be 30b1 8dbe 0d0c 98bd 05af 5dbe
00000070: 3629 0bbe 2ee3 333c bc8b 81bd e31f 74be
00000080: 04ac 59bd 3c7d ce3d f955 10be 5338 efbc
00000090: cbe4 03bd 2747 d73d ee80 01be f4fa c93e
000000a0: 605a 903c 2dfa 0dbd a92a 14bd a627 8fbc
000000b0: 10c1 33be f077 04be 9e40 0a3f 155e 26bd
000000c0: 6741 873e db95 53bd 13de 1e3e 2430 0f3e
000000d0: cdad 59bd ee8b e8bb 6a7f fbbb 1657 eebd
000000e0: 602d 92bb 27e3 59be 00fb 27be 8134 1bbe
000000f0: cf52 e8bc c244 2ebe 4580 37bd e7f3 cdbd
00000100: fb26 95bd 604d 7bbd 2d1c bdbd fd35 b4bc
00000110: a84e e6bd a617 76be a6dd 6cbd bfe8 dbbd
00000120: 09c7 34bd 63da 87bc 9225 1fbe d747 84bd
00000130: 7938 34bd d652 36be cc28 26be bcb2 c3bb
00000140: cfd6 e4bd 5a9f d23d 2490 c4bd b569 e4bd
00000150: b6ae 13bd 0576 09bd 5afc 07be 3551 0abd
00000160: d8dc b7bc 77d4 273e bdee cdbc 3047 a0bd
00000170: 4eaf 00bd 0d56 12be 46c0 54bc fcc7 af3e
00000180: cf22 84bd 6dbd 2ebd 10a1 53bd 6edc a5bd
0.10382103 -0.0045936 -0.05230251 -0.30653822 -0.1891107 -0.06940832 0.0 -0.05263763
-0.13461398 -0.086211234 -0.30616292 -0.016656486 -0.14608794 -0.037268203 -0.02866243 -0.07237542
-0.04912619 -0.16377135 -0.026751354 -0.05272212 0.027912624 -0.0057246406 -0.11496347 -0.024931582
-0.17863104 -0.27674246 -0.074241735 -0.21648796 -0.1358994 0.010979457 -0.0632548 -0.23840289
-0.053142563 0.1008248 -0.14095296 -0.029201662 -0.032200616 0.10511618 -0.12646839 0.39449275
0.01762122 -0.034662414 -0.036173496 -0.01747496 -0.17554116 -0.12936378 0.5400485 -0.040617067
0.26417086 -0.051656585 0.15514402 0.13983208 -0.053144265 -0.007096759 -0.007675101 -0.11637704
-0.0044609755 -0.21278058 -0.16404343 -0.15156747 -0.028359799 -0.17018417 -0.04480006 -0.10056286
-0.072828256 -0.061353087 -0.0923389 -0.0219984 -0.11245471 -0.24032459 -0.057828568 -0.10737752
-0.044135127 -0.016583627 -0.15541676 -0.06459015 -0.04399917 -0.17805037 -0.162265 -0.0059722345
-0.11173784 0.102843 -0.09597805 -0.111529745 -0.03605529 -0.033559818 -0.13279858 -0.03376885
-0.022444174 0.16389643 -0.025138253 -0.07826078 -0.031417184 -0.14290638 -0.012985295 0.34332263
-0.06451952 -0.04266112 -0.051667273 -0.08098684

StatefulPartitionedCall/model/tdist_0/dense/MatMul/ReadVariableOp:0 f4 [6, 100]
00000000: 4965 a6bd bf81 843f cbe8 993d bd8d a63e
00000010: f93c 2f3f 87ab 15bf 3cc9 623f f26f f53e
00000020: 7d8d 15bf fd39 1e3f cbb2 673f 36bb 5cbf
00000030: b25b 533f 79c9 af3e e377 e53d 6804 bdbe
00000040: a236 34bf c21a 423f d9cc 523d 9a76 3dbd
00000050: a288 43bd d9e3 c6bd 42ff 9a3e 69c6 323f
00000060: ebeb f8bd 0996 5abf 5444 5cbe 63d9 28bf
00000070: 62f6 303f ee88 95be 455e 0fbf 49c9 60be
00000080: b489 8b3f 9f4c e43d ea04 363f 2ddf 56bf
00000090: f7c1 0d3e d562 dd3e 49d6 5f3f f082 3e3f
000000a0: 5855 2b3f 00ba e3bd a013 9bbe 2e78 f43e
000000b0: d312 803f 97a9 bdbd c187 8fbe 18b8 e7be
000000c0: 6388 a73e 3bdf 4abf e7e4 83bd f146 253f
000000d0: ccd5 50bd ef86 1abe 8d2e 94be 09a4 bbbe
000000e0: a1e0 e13d 20a7 48bf 4f0a dc3e e635 333e
000000f0: 3bae 68be 51a8 143e 45d0 843d b51e 38bf
00000100: f2bc 48bf 0167 1d3f d760 d83e 66c1 69bf
00000110: 90ca e1be 3543 a23e f786 5a3f 0207 80bf
00000120: 68ff a7be 543e 253e b990 8abf a917 f7be
00000130: 7a17 7cbf b865 563f 4fa8 46be 2645 443c
00000140: bb6b 89bf 900d 65bd 1d5c 10bf e4db d3bd
00000150: 1911 6cbf d677 383f 8710 0f3f 0d07 7dbf
00000160: 8e90 6dbf 0201 20bf 51c6 fbbe 6672 be3e
00000170: 7f55 663f 41ae 51bf 5ddc 833e f89c fabe
00000180: 60f1 4e3f e91e 043e 6a70 8a3f 07ed d9be
00000190: 17ea 2a3e e820 853c 8689 823e a8fd 87be
000001a0: ac1e abbe 46b8 debe 0fad 92bc 7702 373d
000001b0: 1b2a 993d 11ac 4ebe 6bff 933d 1d82 a1be
000001c0: 4d2a 653e 86d4 573d 52a8 753e 4f02 b2be
000001d0: 2fda b73d baa9 a9be b343 81be 7bca d43e
000001e0: 3066 87bd 688e 55bd 28b1 f33e 5704 93be
000001f0: 3a95 10be 8096 2cbf 8b42 3bbd ffb4 173e
00000200: 5b08 b5be 3c8f 2cbe 70cf 533f 50a0 20be
00000210: 7deb 9e3b ba94 ad3d c238 913d c1c0 51be
00000220: 984f 1d3f 257e cd3d b188 29bd 7c84 17bc
00000230: 8de3 cbbe 8081 9cbd bebe 2a3e 6606 063d
00000240: 266f 14bd dd66 2abf 4812 863e a2ea 593e
00000250: ec25 acbd 81e9 bebe 160e 33be ade4 9d3e
00000260: cec5 fbbe 4bbc 9cbc 8e9c 1f3e b86b f63d
00000270: 2c28 e0bd eea4 253e 5166 a5be 1a95 7abe
00000280: 7325 2cbf cda7 ce3e 565c f63c 3ebd 413f
00000290: b3bf 31bc e0b9 c23e d6d4 9bbd 8cf0 3abf
000002a0: b771 873e af88 1fbe e3b7 da3e 5b75 92be
000002b0: 0408 b8be ca8e d5be 3bb8 9a3d 2aa5 1c3f
000002c0: 4674 65bf 5cd4 bdbe 3838 3abe deee 31bf
000002d0: 997b 3cbf 9349 9c3d 4547 83be 24bb 98be
000002e0: e75b 7abe b180 95be 9d3f 793a 73c8 b7be
000002f0: 7f91 80bd 0aa5 113f a546 693d 8ecf a53e
00000300: 103d 673e 0e6a 263d d432 04be 7ead e1be
00000310: 11d4 983e f6c7 60be f24e 84be 7315 d4be
00000320: 3619 893f 18d2 0c3e 3fc6 6bbf fa57 51bf
00000330: 83bc 48bf 2fbf 8c3e d374 5f3e 42a4 513c
00000340: 6be1 853f cbb3 45bf a117 27bf f438 b13e
00000350: 58ef 273f 8e01 1f3e d52d 21bf 5484 29bf
00000360: 3a93 91bf e3de 85be 17b3 c43e b100 0ebf
00000370: 800e eabe 3ed2 51bc ebe6 8cbe a0a6 1fbf
00000380: 6968 903f e6ff 11be b860 f4be 29cd e3bd
00000390: 8021 80bd f03a 413f 44a2 273d c2e2 c53e
000003a0: 1d2c 4f3b 42e7 1a3d 20c3 0ebf 6154 4a3f
000003b0: 7c9f 9e38 c573 063f bf7c 573f e813 fcbd
000003c0: 732c 693f 80af 4dbd f8f9 50bf 9563 1e3f
000003d0: bc2d bebe 2bc7 b13d e623 1a3f 6e7f 8f3f
000003e0: 8db8 2b3f d61f a6be 8c40 aabe cdfa 1abf
000003f0: 1982 0ebf cd6f 3dbc 4a19 263f 742b 8dbf
-0.08124787 1.0352095 0.07515105 0.32530013 0.6845241 -0.58464855 0.8858831 0.4793697
-0.5841902 0.61807233 0.9050719 -0.8622316 0.8256179 0.343334 0.11204507 -0.36917424
-0.70395863 0.7582208 0.05146489 -0.046255685 -0.047737725 -0.09711427 0.3027287 0.69834
-0.12154373 -0.85385185 -0.2151044 -0.65956706 0.6912595 -0.29206032 -0.5600322 -0.21951784
1.0901399 0.11147427 0.7110125 -0.8393429 0.13843523 0.43239465 0.8743635 0.74418545
0.669271 -0.11119461 -0.3028841 0.4774794 1.0005745 -0.09260862 -0.2803326 -0.4525764
0.32721242 -0.7924687 -0.06440144 0.64561373 -0.050985143 -0.15090536 -0.28941765 -0.36648586
0.11029173 -0.7838001 0.42976615 0.1750103 -0.22722714 0.14517333 0.06485037 -0.71921855
-0.7841331 0.61485296 0.42261383 -0.9131073 -0.44099855 0.316919 0.8536219 -1.0002139
-0.32812047 0.16137058 -1.0825416 -0.4826024 -0.9847332 0.8374896 -0.19400142 0.011979377
-1.0736002 -0.055921137 -0.56390554 -0.10344675 -0.9221359 0.72057855 0.55884594 -0.98838884
-0.927987 -0.6250154 -0.4917474 0.37196654 0.89974207 -0.81906515 0.2575406 -0.48947883
0.8083706 0.12902416 1.0815556 -0.4256365 0.1669086 0.016251042 0.25495547 -0.26560712
-0.33421838 -0.43499964 -0.017904786 0.044680085 0.07478734 -0.20182826 0.072264515 -0.3154458
0.22379418 0.052692913 0.2398999 -0.34767386 0.08977162 -0.33137304 -0.25246963 0.4156073
-0.066112876 -0.052137762 0.47596097 -0.2871425 -0.14119425 -0.67417145 -0.045717757 0.14815138
-0.35357937 -0.16851515 0.827384 -0.15686154 0.0048498497 0.08475633 0.07090904 -0.20483686
0.61449575 0.10033826 -0.041390125 -0.009247895 -0.39822045 -0.07641888 0.16674325 0.032720946
-0.036238812 -0.66563207 0.26185822 0.21280912 -0.084056705 -0.37287524 -0.17485842 0.30838528
-0.4917435 -0.019132754 0.15587065 0.120322645 -0.10945162 0.16176197 -0.32304624 -0.2447094
-0.6724464 0.40362397 0.030073326 0.75679386 -0.010848927 0.38032436 -0.076089546 -0.73023295
0.26453945 -0.15579484 0.4271842 -0.2860516 -0.35943615 -0.41710502 0.075546704 0.6118952
-0.89630544 -0.3707608 -0.18185508 -0.6950511 -0.73626095 0.07631221 -0.25640312 -0.29830277
-0.2444912 -0.29199746 0.00095080753 -0.35895118 -0.06277751 0.56892455 0.056952138 0.32384914
0.22581887 0.040628485 -0.12910014 -0.44077677 0.29849294 -0.21951279 -0.2584148 -0.41422614
1.0710819 0.1375202 -0.92099375 -0.81774867 -0.78412646 0.27489612 0.21821909 0.01279551
1.0459417 -0.7722747 -0.6527043 0.34613764 0.65599585 0.15527937 -0.6296056 -0.6621754
-1.1373055 -0.26146612 0.38417885 -0.55469805 -0.45714188 -0.012806473 -0.27519926 -0.62363625
1.1281863 -0.14257774 -0.4773004 -0.111231156 -0.062563896 0.75480556 0.040926233 0.38649565
0.0031611987 0.0378182 -0.5576649 0.79035 7.5637334e-05 0.525204 0.8417472 -0.12308484
0.9108345 -0.050216198 -0.8163142 0.618707 -0.37144268 0.086805664 0.60211027 1.1210763
0.6707848 -0.32446164 -0.3325237 -0.6053894 -0.55667263 -0.0115623 0.6488234 -1.1028886

StatefulPartitionedCall/model/tdist_0/dense/BiasAdd/ReadVariableOp:0 f4 [100]
00000000: e5d4 bfbd 67e5 f6be 4690 56be f2e2 03be
00000010: 54ea 1bbd a421 d4bd 52e8 30be 8cdc c2be
00000020: bf57 613d 67f0 72be b890 9fbe 1304 853d
00000030: c253 d3be cc5c 90be 2b3e b23d 3cff 3bbe
00000040: 4032 983d 5bdb 10bf a4d4 d6bd 519f d9be
00000050: 1796 4bbe 51a8 88be 5fdb 91be f942 72be
00000060: 235f 26be 2cd5 983d 3258 46be 12e0 e8bc
00000070: 1f1e b8be 27c2 fabc d075 82bd 2902 40bc
00000080: de02 dbbe 72b8 22be 3312 54be d5aa febd
00000090: 922c 24be c01a f5bd d4b3 8abe 47b6 f5be
000000a0: df0c 96be 0000 0000 850c 033e 8db3 5fbe
000000b0: 422b f1be 7948 18bc db31 913d 105e d8bb
000000c0: 10cc 90bd c569 6a3d d9be fbbd d2ba abbe
000000d0: 6995 f5bd 7e86 19bd 9e9c a9bd 8f54 3c3d
000000e0: f684 b6bd cb0d 0e3e 172b 563d 3f2a 09be
000000f0: c623 64bd fadf 0e3c 6d5e 69bd 417d a9bc
00000100: 820e 063e d9cd ebbd eda2 07bf 74c6 a53c
00000110: 8b4c 463e cc1a e5be b660 f1be 4943 753d
00000120: 72fe b6bc 297f 8bbe d40f b33d a22b edbd
00000130: d395 d7bd 5b50 b1be 94f9 06bf 9ac4 03bd
00000140: 08a0 babd 951c a1be 2d7b 89bc d24c f63b
00000150: eda0 023f 1d4c 0ebe c1cc 56be b140 b739
00000160: 501b 473e e59a 813c 8b56 3fbd 9454 92be
00000170: 9435 00bf 9462 173c 25da e33c 04e4 f2bd
00000180: 73e1 e5be a8a2 a4bd 7724 f6be bb7e 2dbe
-0.09366778 -0.48221895 -0.20953473 -0.12879542 -0.03806527 -0.10357979 -0.17276123 -0.3805889
0.05501532 -0.23724519 -0.311651 0.06494918 -0.4127484 -0.28195798 0.08703264 -0.18359083
0.074314594 -0.5658471 -0.10489777 -0.4250436 -0.19881473 -0.26690915 -0.2848768 -0.2365836
-0.1624723 0.07462534 -0.19369581 -0.028427158 -0.3596048 -0.030610157 -0.06370127 -0.011719265
-0.42775625 -0.15890673 -0.20710067 -0.124349274 -0.16032627 -0.11967993 -0.27090323 -0.4799063
-0.29306695 0.0 0.12797745 -0.21845837 -0.47103316 -0.009294623 0.07089587 -0.00660301
-0.07070172 0.057229776 -0.12292261 -0.3354097 -0.11991388 -0.037481777 -0.082818255 0.04597908
-0.08912079 0.13872449 0.052287187 -0.13395022 -0.05569818 0.008720392 -0.056974817 -0.020689609
0.13091472 -0.11513872 -0.5298298 0.020236231 0.19365136 -0.44747007 -0.47144097 0.05987862
-0.022338126 -0.27245453 0.08743253 -0.11580588 -0.105266236 -0.3463162 -0.52724576 -0.032169916
-0.09112555 -0.3146712 -0.016782368 0.007516482 0.51026803 -0.13896222 -0.20976545 0.0003495268
0.19444013 0.01582093 -0.046713393 -0.28580153 -0.50081754 0.009239811 0.02781398 -0.11859897
-0.44898567 -0.08038837 -0.48074695 -0.16942875

StatefulPartitionedCall/model/output/MatMul/ReadVariableOp:0 f4 [100, 2]
00000000: 37a0 1dbd 6e8f ffbc c4f7 d6bb 2a80 ffbc
00000010: 7c6e 2d3e a1ad 683d 9c26 223e 5c91 273e
00000020: 7770 4ebe bfb8 33be 7f71 223d 09c7 273d
00000030: b84d 90bd 5fa3 59bd 85b7 adba 583d 1c3d
00000040: 5c12 a6bd 9a4a aabd c30f f5bd 0fa0 9dbd
00000050: 52aa cebd 7d0c d0bd 95c3 1abe 1a74 1dbe
00000060: dc11 17be 2c4a 11be cfb1 a3b9 5b3d ba3c
00000070: f739 a4bd ee7f 65bd 7073 26bd b112 db3d
00000080: 6545 0ebe 8951 aebd 57e2 37be 2268 28be
00000090: 5471 f03d b240 dc3d d74e 433e e2fe a13d
000000a0: 5d09 493d 377b 723c e135 293e 858d 373e
000000b0: a177 4bbe 70af 1bbe 2bf4 d53d 0cc6 383d
000000c0: 8bbf c93a fb2c fabc e36e 2a3d 2e9d 84bc
000000d0: d086 7ebd 67e2 ecbc b9fb b9bc ee15 1abb
000000e0: f313 a23d c352 01bd 9fd4 253e 2c3a 413e
000000f0: 2c92 03be a48c 07be 05a6 4e3e 6702 763d
00000100: 3aef bf3d 8fec 0a3e 9e0e 2c3e 1e5a 1a3e
00000110: 5cda 1bbe fc9f 19be 67d4 b33c aaa5 b13b
00000120: 3901 fcbc cef8 16bd 4703 dfbd 1b2e 9bbd
00000130: 26d6 7cbd 0978 08be c349 aebd cfcd 7bbd
00000140: f7a9 c83d 399c 173e cd04 fdbd 4ba8 c2bd
00000150: ac4e d83c 4f65 acbc 07ac d4bd 514f 48be
00000160: d804 993d 6f99 743d 026b 30be ac53 2fbe
00000170: 1a2c 8fbd f7df 5cbd 735d 6b3d 75ce ce3d
00000180: 9bb4 6c3d 9b72 97bb 78c5 073e d262 013e
00000190: db50 18bd c246 8bbb aea8 0cbc a7cd acbc
000001a0: 2e96 5b3d ab79 913d 6b61 6fbc d6b6 a6bd
000001b0: 8ab7 9b3d b68f 0f3e a967 2bbd c742 cfbd
000001c0: b523 083e a9fd ad3c ae5d 7f3d fed6 38bd
000001d0: 2646 f1bd c327 89be 7147 fc3c 186e 483d
000001e0: 5a32 58bd 1029 96bd 4c88 03be e5aa 17be
000001f0: 2a80 2dbe 6c75 2fbe 8d5a fa3a 424f 4f3d
00000200: 546d 663d ad82 bf3d 8efd 59bd 3e25 51bd
00000210: 9ec8 22be acc6 0cbe ee06 e0bc 189f d7bd
00000220: 3848 e2bd ff25 9aba 9199 4e3d 05d1 f13d
00000230: 6c0b 403e cf04 2e3e 28d7 6f3c 9738 c8bb
00000240: f1e1 183d 2429 23be b1ea 1b3e 29b5 133e
00000250: 0477 453e 5a25 133e 850f e73d cd91 ac3d
00000260: 7622 4fbd d13c 88bd deb7 fabd 82b0 babd
00000270: 8471 82bc 39a4 0b3d 1275 2b3c 8f79 25bd
00000280: 0dba d63c 27c0 1f3b 267d 3dba 4f69 83bc
00000290: b9a4 e1bc a0d5 84bc 85c5 6b3d cb27 5a3d
000002a0: 0292 e0bd 73e9 d7bd 61f1 80bd 8309 57bd
000002b0: 7ffc 5ebd 6b5e 2ebd ea94 313d f91c 833d
000002c0: ba90 15be 0b40 f7bd 4dce 27bd 9dbb 263c
000002d0: 6463 dc3d e3cf cd3d 4144 bb3d 2c97 7e3d
000002e0: 97ab 4f3e 3b52 2c3e b4e7 dd3d 2a5c 4a3e
000002f0: fae5 14bd 9c1a fa3c 062c fbbd ca8f f8bd
00000300: 1e95 073d e3f7 e83c 0414 913e 8f3f 293e
00000310: 6395 643e b18d 383e 419b fd3d 7cb3 423d
-0.03848287 -0.031196322 -0.0065602977 -0.031189043 0.16936678 0.05680621 0.15835041 0.16364044
-0.2016009 -0.17550944 0.03965902 0.0409613 -0.07046074 -0.05313432 -0.0013253546 0.03814444
-0.081089705 -0.0831501 -0.11965897 -0.076965444 -0.1009108 -0.10158632 -0.15113671 -0.1537632
-0.14752907 -0.1418845 -0.0003122226 0.022734335 -0.080188684 -0.056030206 -0.040637434 0.106969245
-0.1389366 -0.08511645 -0.17957436 -0.16445974 0.117403656 0.10754527 0.19073044 0.07909943
0.049081195 0.0147998845 0.1652446 0.17925079 -0.19869854 -0.15203643 0.10446962 0.045110747
0.0015392167 -0.030539026 0.041609656 -0.01618823 -0.062140286 -0.02891655 -0.022703039 -0.0023511606
0.07913961 -0.03157307 0.1619439 0.18869847 -0.12848729 -0.13237244 0.20180519 0.060060885
0.09371801 0.13566802 0.16802451 0.1507344 -0.15220016 -0.15002435 0.021951867 0.00542136
-0.030762302 -0.036858372 -0.10889297 -0.07577153 -0.061727665 -0.1332704 -0.08510163 -0.06147557
0.09798043 0.14805688 -0.12354431 -0.095047556 0.026404701 -0.021044401 -0.10384374 -0.19561507
0.07471627 0.05971664 -0.1722832 -0.17121762 -0.069908336 -0.053924527 0.057462167 0.10097972
0.057789426 -0.0046218163 0.13258922 0.12635353 -0.037186485 -0.0042503783 -0.008585138 -0.021094156
0.05361002 0.071032844 -0.014610629 -0.08140342 0.07603367 0.14019665 -0.041846905 -0.10120159
0.13294871 0.021239119 0.0623452 -0.045126908 -0.11780958 -0.26788148 0.030795785 0.04893312
-0.052782394 -0.07332051 -0.12844962 -0.14811285 -0.16943422 -0.17134637 0.0019100473 0.050612696
0.056256607 0.09351096 -0.053220324 -0.051060908 -0.15896842 -0.13747662 -0.027347054 -0.105283916
-0.11048931 -0.0011760591 0.05043942 0.118074454 0.18754357 0.16994022 0.0146387 -0.0061102617
0.03732485 -0.15933663 0.15226246 0.14424576 0.19283682 0.14369717 0.11282257 0.08426247
-0.050569974 -0.06652225 -0.12242101 -0.091156974 -0.01592327 0.03409216 0.010464923 -0.04039913
0.026211763 0.0024376006 -0.00072284264 -0.016041426 -0.027544366 -0.016215146 0.057561416 0.053260606
-0.10965349 -0.10542574 -0.062960394 -0.052499305 -0.054440018 -0.042570513 0.043354906 0.064020105
-0.1460599 -0.12072762 -0.040968228 0.010176566 0.10761145 0.10049417 0.09143878 0.062155887
0.202803 0.16828243 0.108352095 0.1976172 -0.036352135 0.030530266 -0.12264256 -0.121368006
0.033101194 0.028438514 0.28335583 0.16528152 0.22322612 0.18022801 0.12383128 0.04753445

StatefulPartitionedCall/model/output/BiasAdd/ReadVariableOp:0 f4 [2]
00000000: 7f92 06bb 5f98 063b
-0.0020534096 0.0020537598

StatefulPartitionedCall/model/dense_2/MatMul/ReadVariableOp:0 f4 [100, 100]
00000000: 336b 283e 6281 4ebd 739b 62be 6792 11be
00000010: cd5d 923d bdc7 953a 7381 393e 613d 36be
00000020: cacf 65be 52a6 52be 51e3 edbd 7b1e 02be
00000030: f3af 3b3e df32 5a3e a732 dd3d 702e 933d
00000040: 865b 443e 65b6 a1bd 0161 1abe 6496 083e
00000050: 4606 14bc ce55 1fbe 79b2 5c3d 4f85 36be
00000060: 2084 01bb 9d3d 07bc c964 ecbd d3a0 babd
00000070: 02d3 bf3d c3bc 10be 7e28 ed3c 0c7c bebd
00000080: 8d5a 213c 3ae7 a23b 2aca 713d 784f 603d
00000090: 7e77 b53c a3e3 5c3e 1656 0a3e d5ea a5bd
000000a0: adb4 f23d 6602 673e d9fb 34be 1493 3c3d
000000b0: 6e12 91bd 7a39 563e 626e fd3d 4e2e cfbd
000000c0: 8d3e 04be 9f11 37be 2d6a 3c3d 2279 103c
000000d0: c8f6 cebd b0ca 283e f3a9 cc3d 7db3 473e
000000e0: 6d6b 2a3d b32a bebd 4f81 273e 726e 9bbc
000000f0: 7204 cb3d 68a8 a2bd c0e1 7cbe 60c6 01be
00000100: 3bdc 18bd 9b37 84bc 0e94 6d3d 4a39 473e
00000110: 55c4 d8bd 4ac7 523e 5104 6d3e 3554 bbbd
00000120: 9052 cf3d f24c 26be 00a7 dcba 6cb8 683e
00000130: 885b 2b3e 06eb d4bd 40a3 853e 81d4 19be
00000140: 25e9 083d 6c43 68be 41aa 943b e825 3ebd
00000150: 014c 7e3e 15eb 6cbe 44e8 1e3e 4a4d 633e
00000160: e254 333e 6927 e8bd 9c14 0bbd 40ba b7bc
00000170: 2dac e63d 2056 16be 564b 9d3d db90 dd3d
00000180: a13f 59be ea2e a13d c74d 423e ba74 7bbd
00000190: e8cc 2d3d 9341 1fbe 20d0 b03d b7c9 2d3e
000001a0: fae2 eebd 3b5f 22be 43e5 bfbd da3b 8abd
000001b0: ede9 1bbd 5184 c73b 2ca7 07be c1fb ab3d
000001c0: 9269 2cbd 4be1 683d 98f5 523e 1dbe d63d
000001d0: 4d2d 723e 549f 1c3e 7c65 083e f20f 7b3e
000001e0: cfc8 a63d c0da ba3d 7243 8dbe 1642 73be
000001f0: 5e1b 16be 61c7 0fbe 975a ab3c 7617 543e
00000200: a18d 8dbe 0842 063c fef9 80bd ccbb 1d3d
00000210: ecab 973d 5e03 f63c 78b9 763d 361e f7bd
00000220: 48f5 eb3d 843b 86be b71d 3ebd 551e 6cbc
00000230: 6a31 a3be 9dd0 61be d15e 543e 4593 5abe
00000240: 478e 9c3d cc6f 61be 5f9d 4c3e fef9 c4bd
00000250: f131 e4bc 4963 2f3d c9b3 40be dae9 3d3d
00000260: d06e e53d ffc3 093e b52c a3be 9397 f9bd
00000270: e101 e43b ea77 a2bd 64cd c13d df7f e53b
00000280: 88b7 123e 7dc7 b03d b1b7 4cbd db86 7ebe
00000290: c640 18bd 6627 813d 280d 553e 18e2 a33d
000002a0: 6ed2 573e 2aed dd3d 6365 abbc fa10 473e
000002b0: 6eae 07bc ec35 97be 4d31 4ebe 6edf b43d
000002c0: 816e f8bd c491 e33d b404 91be e3f7 633d
000002d0: 7197 08bd 6705 86bc 1450 89be 3f54 98be
000002e0: 8090 d6bb 1422 52be eda3 2dbe 4c54 e53d
000002f0: 0bd6 0e3e 9704 c03d 7009 1fbe b609 d83c
00000300: ece7 5c3e 7f78 64be 60d2 533e 5629 73bd
00000310: 6cf1 213e 6dbf cabc 7379 11be f76a 4fbd
00000320: 6d43 56be c50a 02be 28f6 2e3b 8764 2e3e
00000330: 2593 893d 1c68 76bd 5467 543e 769a 1c3e
00000340: d28a f33d 07f5 203e 3554 793e ae4c 96bd
00000350: d9c3 1a3e 1e13 32be f098 e03b e581 8fbd
00000360: d298 973d 1d63 09be 0d5e 14be e511 823d
00000370: bd4a 953d 03a0 aa3d 1648 e9bd 6985 f73c
00000380: a972 a83d 5da9 a4bd 4a39 0c3e b58c 77be
00000390: 5091 5abe d43e c13d b8c4 3a3d fe08 0c3c
000003a0: f960 0d3e 3df4 aa3d a390 163e 56b3 bc3d
000003b0: ec1f 523e 8459 fabd 9030 553e 7f9c 0fbe
000003c0: f605 ce3d 3a23 b03d 2315 503e cbb5 48bd
000003d0: c7c6 8a3e 71cf ecbd b266 fa3d c97a 053c
000003e0: b356 483e abed 16bd 751e e7bd 8dfd e8bd
000003f0: 696f 2a3e 6d73 57be 3d75 c73d 6d16 eabd
0.16447143 -0.050416358 -0.22129612 -0.14216004 0.07146797 0.0011427324 0.18115787 -0.17796852
-0.22442546 -0.20571259 -0.11615623 -0.1270694 0.18328838 0.21308468 0.10800677 0.071865916
0.19175538 -0.07896117 -0.15076067 0.1333862 -0.009034699 -0.15560076 0.053881142 -0.1782429
-0.001976259 -0.008254436 -0.11542661 -0.09112706 0.093664184 -0.14134507 0.028949972 -0.09301004
0.009848249 0.004971412 0.05903069 0.054763287 0.022151705 0.21571212 0.13509402 -0.08101431
0.118508674 0.22559509 -0.17674197 0.046038702 -0.07083593 0.20920363 0.123745695 -0.10116254
-0.12914486 -0.17877816 0.045999695 0.008817943 -0.101056635 0.16483569 0.09993353 0.19502063
0.041606355 -0.09285488 0.16357921 -0.018973563 0.09912957 -0.07942277 -0.24695492 -0.1267333
-0.037319403 -0.016139796 0.058002524 0.19455448 -0.10584322 0.20583835 0.23146178 -0.091469206
0.101231694 -0.1624029 -0.0016834438 0.22726601 0.16734135 -0.1039639 0.26101112 -0.1502247
0.03342547 -0.2268197 0.0045368974 -0.04642287 0.2483368 -0.23136552 0.1551829 0.22197452
0.17512849 -0.11335642 -0.0339552 -0.022427678 0.11263309 -0.14681292 0.07680385 0.108186446
-0.21215679 0.07870276 0.18974982 -0.061390616 0.042431742 -0.15552358 0.08633447 0.1697148
-0.11664386 -0.1585664 -0.093699 -0.06749697 -0.038064886 0.0060887714 -0.13247365 0.083976276
-0.042092867 0.05685548 0.20601499 0.1048548 0.23650093 0.15295154 0.13319963 0.24517801
0.0814377 0.091237545 -0.2759052 -0.23755679 -0.14658877 -0.14040901 0.02091722 0.20712075
-0.27647117 0.008194454 -0.06297682 0.038509175 0.07405838 0.030030902 0.06023547 -0.12066309
0.11521393 -0.26217282 -0.046415057 -0.014411529 -0.31873637 -0.22052236 0.20739295 -0.21345241
0.07644325 -0.22015303 0.19981907 -0.09617995 -0.027855845 0.042819295 -0.18818583 0.046365596
0.112027764 0.13453673 -0.31870046 -0.121871136 0.006958232 -0.07933028 0.09463003 0.007003769
0.14327824 0.08631799 -0.04997987 -0.24856131 -0.037171148 0.06306343 0.208058 0.08002108
0.21076366 0.10836251 -0.020922368 0.1944007 -0.008281333 -0.29533327 -0.20135994 0.08831678
-0.12130452 0.11111787 -0.283239 0.055656325 -0.03334755 -0.016359998 -0.26818907 -0.29751775
-0.0065479875 -0.20520812 -0.16957064 0.11197719 0.13948838 0.093758754 -0.15530944 0.026371818
0.21572846 -0.2231159 0.2068572 -0.059365593 0.15814751 -0.024749482 -0.14206485 -0.05063912
-0.20924158 -0.12699421 0.0026697014 0.17030536 0.06717519 -0.06015788 0.20742542 0.15293297
0.11891712 0.1571847 0.24348529 -0.07338844 0.15113772 -0.17390105 0.006854169 -0.07007197
0.07402195 -0.13416715 -0.14489003 0.06351069 0.07289646 0.08331301 -0.113907024 0.030214982
0.08224995 -0.08040116 0.13693729 -0.24174769 -0.21344495 0.09435812 0.045597762 0.008547066
0.13806523 0.08347366 0.14703612 0.09213893 0.2051999 -0.12224105 0.20819306 -0.14024542
0.10059731 0.08600469 0.20320563 -0.049001496 0.2710478 -0.11563004 0.12226619 0.00814695
0.19564323 -0.03684775 -0.11285106 -0.11376486 0.16644062 -0.21040125 0.09739158 -0.11430059

StatefulPartitionedCall/model/dense_2/BiasAdd/ReadVariableOp:0 f4 [100]
00000000: 30a2 1ebe 59ef 69be 5504 81be aa37 17be
00000010: 9946 97be 4950 6dbe 35f3 fdbe 7aa3 74be
00000020: ab62 a7be 1b9e 34be b81d c6be 0ca9 bdbe
00000030: 3328 a4be 90ce 02be 8559 2fbe 4d5c d6bb
00000040: 291f 0ebe e70a ccbd b9ef 84be b3e6 15bf
00000050: f8c7 95be fd1d 6bbe cc01 7bbe 7991 6abe
00000060: 5157 f2bd 8c2b d2bd 0545 53be 8325 85be
00000070: 2885 6cbe b351 e3bd 517a 2bbe d5a3 61be
00000080: ceb6 34be a8d0 8fbe 4fa4 20be 77de 52be
00000090: f184 09be 0a83 c4bd 540d 0abe 4ad3 12be
000000a0: 41b8 88be d319 dfbd 1d36 72be e656 debd
000000b0: 1a45 04be fa9e 45be 1f47 0abe 3d00 a6bd
000000c0: a1d7 44be 3b49 83be 86ae 2ebe d9bf 5abe
000000d0: aedf 4abe 86e7 96be 589e 70be bbcd b4be
000000e0: 50c6 0cbe 1cf4 03bf 2dd3 633e eab5 39be
000000f0: 0e15 78be 3467 45be 11b6 94be faf3 66be
00000100: 6b5a 23be 9875 fcbc a9b4 77be 81bc 26be
00000110: 7f95 29be bd8e d2bd 6d6f 47be 95d1 60be
00000120: 6e55 5bbe f4a8 4bbe c8e5 41be e9cf 3dbe
00000130: 71d2 a2be ce75 c3bd 9925 85be d5c8 0ebe
00000140: 5c9e 18be 932d 1bbe 1f14 03be 1298 3abe
00000150: 092c b5bd 9148 acbe 2204 67be 3c34 83be
00000160: de79 44be c4c1 babe 8481 43be a5c6 4dbe
00000170: 6933 2abe 1e67 82be 7630 01be 66e3 33be
00000180: fc22 25be 66a7 13be 1316 32be f701 f2be
-0.15491557 -0.2284521 -0.25198618 -0.14767328 -0.2954605 -0.23175158 -0.49599615 -0.23890486
-0.32692465 -0.17638437 -0.3869455 -0.37043035 -0.3206192 -0.1277411 -0.17123993 -0.006541765
-0.13879074 -0.09963017 -0.25964144 -0.58555144 -0.29254127 -0.22960658 -0.24512404 -0.22907056
-0.118330605 -0.10262212 -0.20631798 -0.26005182 -0.2309767 -0.11099567 -0.16745879 -0.22035153
-0.1764786 -0.2808888 -0.15687679 -0.20592676 -0.1342962 -0.09595306 -0.13481647 -0.14338413
-0.26703075 -0.108935975 -0.23653455 -0.10856418 -0.12916985 -0.19298926 -0.13503693 -0.08105514
-0.19222881 -0.25641808 -0.17058763 -0.21362247 -0.1981189 -0.29473513 -0.23497903 -0.3531321
-0.13747525 -0.51544356 0.22248526 -0.18135801 -0.24226782 -0.1927765 -0.29045156 -0.22554007
-0.1595246 -0.030817792 -0.2419001 -0.16282846 -0.16560934 -0.102811314 -0.194761 -0.21954949
-0.21419308 -0.19888669 -0.18935311 -0.18536343 -0.3180118 -0.09543954 -0.26005247 -0.13943799
-0.1490416 -0.15154104 -0.12800644 -0.18222073 -0.0884629 -0.33649114 -0.2256017 -0.2562579
-0.19187114 -0.36475956 -0.19092375 -0.20095308 -0.16621174 -0.25469297 -0.12616143 -0.17567214
-0.16126627 -0.14419326 -0.17391233 -0.47267124

StatefulPartitionedCall/model/dense_1/MatMul/ReadVariableOp:0 f4 [100, 100]
00000000: 1544 ccbd 69ce 4fbe 919f 9abe c186 0abe
00000010: 96fb 43be 6886 8ebc cdb3 41bc 3be5 4bbe
00000020: 7fee d9ba 62a4 a1bc 3062 0fbd a144 4bbe
00000030: 722b 1f3c 3efd 41be 5883 c8bd eb46 e9bd
00000040: 1658 edbd 6108 47bd ae53 78be 27ac 53bd
00000050: f160 af3d d1af 65bd 6131 b3be dd94 1dbe
00000060: 1229 72bd 37d3 45bd e62d 7bbe 3671 17bc
00000070: 3aec a3be a6d9 39be c607 5bbe 141f 66be
00000080: f87c c2be 35c3 b13d aa7d e7bd 90d5 07bd
00000090: 0e9b abbd 355e fbbd 0c8a 5ebd 7fda 153d
000000a0: 20fb 8dbd 68d5 02be 5f15 06be 25e1 493d
000000b0: 87af b0bd bb81 a03d 1b52 37be 18c3 dfbd
000000c0: fadc 7f3e 46f9 06bd b5f9 98be 3e63 11be
000000d0: e889 57be 8494 1cbe 24a3 52be 1efa 9fbe
000000e0: 7994 afbe 09e1 69bd 3b4e 2b3d 03e7 33be
000000f0: 263e 433e 1f22 d5bc 6157 20be cc2d 55bd
00000100: 6cab c53c 39ad 2cbe 8354 22be 9249 bfbd
00000110: 2c82 923c 5570 fdbc 5d27 2bbc 40ea 3dbd
00000120: 6c0b 2cbd cfb0 1cbc 7ae4 24bc 43cc 44bd
00000130: 51e7 43bd 4624 7ebd b7f5 2abe d469 48be
00000140: 6126 acbe c5a2 51be 59b7 5ebe f16b 8b3c
00000150: 24cf 07ba 4c8d 15be 0275 c0bd 3d38 1cbd
00000160: 1b15 09be 108e fe3d 33e5 1abe 24cb 76bd
00000170: 720d 41be f524 cfbe 62d4 823e c2a5 62bd
00000180: de5a 05be 3dcd ccbc b34e 06be d5ec 9cbd
00000190: fc7c 6f3e 8486 b2bd 8321 693e ead2 c4bd
000001a0: 3130 483e 65e3 123d c841 133d 5e8d 03be
000001b0: a648 d1bc 3241 c7bd 8da4 b2bd 5e11 a33d
000001c0: 3910 af3c 907c 6bbc 5f8d eb3d 4a67 fcbc
000001d0: f749 213e a73a 3c3c ef4e 173e 39bc 803a
000001e0: 4df8 db3d 142e 4ebd 674d 2d3e c733 12be
000001f0: a2e0 f03d 27ac 5bbd 22a7 243e f064 673e
00000200: b2cf b3bd 1070 073e b029 06be fbf8 0abe
00000210: 36ac 8a3d 2c48 2d3e 9af7 b4bb c46b c7bc
00000220: d7ee 21be a644 623e dda3 663d 5b40 49be
00000230: 0c26 1bbd 4cf1 353d 7fa8 ccbc 73e7 d9bd
00000240: 7e37 2d3e 250a 043d f11b c13d 4370 a4bd
00000250: ffb5 b43d f6f6 023e 1035 0c3e 8b4b 1ebb
00000260: a20f 2f3e fa0a 76be b69d 29be eec1 01be
00000270: 5b62 733e cbfc 0f3e 6d4b 9c3b ffe3 113e
00000280: 8306 603e f8b2 dfbc 162e b83c 6a41 14be
00000290: b9ae 7ebc 304a 4d3b 5ec3 f9bd d412 31be
000002a0: 6de8 6c3e 9489 fcbd 1323 003e e4e2 44bd
000002b0: 3cfb 1b3e 1a7d 20bc 3c82 b6bd a1ae 743d
000002c0: 8043 f23c 6115 253e 0259 2bbd a463 53be
000002d0: 538b d6bd 7662 6c3d 0719 78be d8f5 05bd
000002e0: 75c6 59bc f6a2 373e 82f1 05bc d345 a8bb
000002f0: a4e4 1e3e c117 47be c0e2 5dbb 68fc d43c
00000300: 093b 793e 9af0 143b f292 353e f2e0 c4bc
00000310: c5d0 62be 7756 80be 5ca8 5abe 2944 5b3e
00000320: 09ef 133e 741a 13be 2cbb 4e3d 08d2 d1bd
00000330: a1b0 d2bd 723f 353d 1f8b be3d 2019 27bd
00000340: 84f1 743d 0d0e 81bc c1a2 52be 81a4 36be
00000350: 2d93 81be 62c5 28be deb7 0ebe 3d57 0d3e
00000360: a353 8e3d 2ecd 5fbe 522d 73bd a5fe 4ebc
00000370: e1e2 07bc f3e1 c73d ee4d 3dbd 6fce 543c
00000380: 4309 333e a230 59be 5410 2b3c 2269 62be
00000390: 1e62 f1bd 56d1 6ebe 7ead 573e dca3 553e
000003a0: cb63 66bd 9ddc 2e3e a7aa 6d3e 58db 2e3e
000003b0: 68c3 4ebe a7b5 4d3e 2c45 863e 417b 5b3d
000003c0: ea8e 2abc ed35 973d af88 4dbe 141f 0a3d
000003d0: 4909 3dbe 1b97 0cbe 2d0f 1d3e 7b99 0d3d
000003e0: e6f4 61be 84c1 2fbe 256e 9ebe b394 b4bd
000003f0: ad44 733e 66b5 7ebe 0654 0f3d 7129 07be
-0.09973923 -0.20293583 -0.30199865 -0.13527967 -0.19138941 -0.017398074 -0.011822653 -0.19911663
-0.0016626864 -0.019731704 -0.03500575 -0.19850399 0.009714948 -0.1894426 -0.09790677 -0.1139048
-0.11589067 -0.048591975 -0.24250671 -0.05167785 0.08563412 -0.056075875 -0.3499861 -0.15388818
-0.0591212 -0.048297133 -0.24529228 -0.0092433 -0.32016164 -0.18149433 -0.21389684 -0.22472793
-0.3798597 0.08679811 -0.113032654 -0.033162653 -0.08379184 -0.12273828 -0.05433087 0.036585327
-0.06932664 -0.1277672 -0.1309409 0.04928698 -0.08627229 0.07837244 -0.17902415 -0.10925883
0.2498664 -0.03295257 -0.2987801 -0.14198014 -0.21048701 -0.15291029 -0.20570046 -0.31245512
-0.34292963 -0.057099376 0.041822653 -0.17568593 0.19066676 -0.026017247 -0.15658332 -0.05204563
0.024129592 -0.16862954 -0.15852551 -0.09340204 0.017884336 -0.030937353 -0.010446397 -0.046365976
-0.04200308 -0.009563639 -0.010064239 -0.04804636 -0.047828022 -0.06204631 -0.16695295 -0.1957162
-0.3362303 -0.20472248 -0.21749629 0.017019244 -0.00051807077 -0.14604682 -0.093973175 -0.03813957
-0.13386957 0.1242944 -0.15126495 -0.060252324 -0.18852785 -0.40457883 0.2555266 -0.05533386
-0.13022944 -0.025000209 -0.13115959 -0.076623596 0.23387522 -0.08717063 0.2276669 -0.09610541
0.19549634 0.03586139 0.035951406 -0.12846896 -0.025547337 -0.09729232 -0.08722792 0.07962297
0.02137004 -0.01437296 0.11501574 -0.03081097 0.15750872 0.011488593 0.14776205 0.000982172
0.10740719 -0.050336912 0.16924058 -0.14277564 0.11761595 -0.053630974 0.16079381 0.22597098
-0.08779849 0.13226342 -0.1310184 -0.13571541 0.06771128 0.16922063 -0.0055226805 -0.024343379
-0.15813766 0.220965 0.056308616 -0.19653456 -0.03787808 0.04441957 -0.024982689 -0.106398486
0.169157 0.032236237 0.094291575 -0.08029225 0.088237755 0.1278952 0.13692117 -0.0024153914
0.17095807 -0.24027625 -0.16564068 -0.12671635 0.23767988 0.14061277 0.0047697336 0.1424713
0.21877484 -0.027307019 0.022482913 -0.14478078 -0.015544587 0.0031324737 -0.121954665 -0.17292339
0.23135538 -0.123309284 0.1251338 -0.048067942 0.15232557 -0.009795452 -0.08911559 0.05973685
0.029573202 0.16121437 -0.04183293 -0.20643479 -0.10475793 0.057711087 -0.24228297 -0.032705158
-0.013291945 0.17933258 -0.008175256 -0.005135277 0.15516907 -0.19442655 -0.0033857077 0.025999263
0.24338926 0.0022726418 0.17731836 -0.024033044 -0.22149952 -0.25065967 -0.21353287 0.2141272
0.14446653 -0.1436556 0.05047147 -0.102451384 -0.102875955 0.04424996 0.09303879 -0.040795445
0.05980064 -0.01575377 -0.20569898 -0.17836191 -0.253076 -0.16481546 -0.13937327 0.1380281
0.06949546 -0.21855614 -0.059369393 -0.012633954 -0.008293838 0.09759893 -0.046216898 0.012988671
0.17484002 -0.21209958 0.010440905 -0.22110417 -0.117862925 -0.23322043 0.21062276 0.20863289
-0.056247514 0.17076345 0.2320963 0.1707586 -0.20191729 0.20088826 0.2622465 0.05358434
-0.01041005 0.073833324 -0.20071672 0.033721045 -0.18460573 -0.13729517 0.1533782 0.0345702
-0.22066078 -0.17163664 -0.3094341 -0.088174246 0.23756666 -0.24873886 0.03499224 -0.13199402

StatefulPartitionedCall/model/dense_1/BiasAdd/ReadVariableOp:0 f4 [100]
00000000: 2e52 53be 7c3c 6cbe 027e f5bd 9716 7ebe
00000010: 1808 41be 9abe 74be f05b 3dbe a608 3ebe
00000020: 678f d9bd 1d6f f9bd 4e16 8dbd 2908 2fbe
00000030: 68ee 1cbd a936 dabd e0bd 5cbe 8a11 d4bd
00000040: d143 96be 5c0b 0dbe 3c78 c0bd a3a7 87bd
00000050: a8a8 98bd c4eb a1be 1a15 84be 83ec 50be
00000060: 4ad9 94be 505b 57be a7aa 413e 2c8c 7dbe
00000070: b7b7 53be 3fb3 aebe d1a8 27be 5226 0cbe
00000080: d83e 8bbe 2121 11bf 7b50 9fbe 07c5 c8bd
00000090: f0a3 2dbe a9e3 04be 6412 76be 9afa 19be
000000a0: 2620 abbd 3e2c 73be 5df8 a7be 9771 1cbf
000000b0: ecd8 3cbe 886f 5abe 5baf 61be ab46 20be
000000c0: c325 a5bd e7bb 11be 88ba c7bd 38bc 4fbe
000000d0: d9d4 25be bde8 3fbe 302d 38be d3ce 7bbe
000000e0: 91a5 0dbe 1b9b afbe 8395 1fbe 0606 643e
000000f0: 58c5 4abc 4bf4 48be b778 ebbd 820b a4be
00000100: 3fea 27bf 85b2 a6bd 5fe2 a1bd bb29 f6bd
00000110: f211 ddbe 293a 4abe 442a cabe b6f9 7ebe
00000120: fa05 a1be adec 2dbe 790e 32be 5f21 04be
00000130: 4f05 2abe 1364 c4bd 67a4 e6bd eaab 5abe
00000140: dd0a 27be 86b2 1ebe 00a2 15bf e1fb 40be
00000150: 8011 12be 7ff9 3dbe 9cb9 02be 6b69 49be
00000160: 9f0c 13be b2e6 debe 92de c0bd 2ce5 29be
00000170: 3524 84be 71fb e2be ed87 9abd ff2c 52be
00000180: 202f e7bd 21c0 28be 6e67 84be e0df 4fbe
-0.20636818 -0.23069948 -0.11986925 -0.24813305 -0.18850744 -0.23900834 -0.18492103 -0.18557987
-0.10623055 -0.12179396 -0.0688902 -0.17092957 -0.0383133 -0.10654957 -0.21556807 -0.10354908
-0.29348615 -0.13773865 -0.09397933 -0.06623771 -0.074540436 -0.31625187 -0.2579735 -0.20402722
-0.29072028 -0.21030927 0.18912755 -0.24760503 -0.2067555 -0.3412113 -0.16372992 -0.13686493
-0.27196383 -0.56691176 -0.3111609 -0.09803205 -0.16957068 -0.1297747 -0.24030453 -0.15037003
-0.08355741 -0.23747346 -0.32806674 -0.61110824 -0.18442124 -0.21331608 -0.22039549 -0.15651958
-0.08063843 -0.14231835 -0.09752375 -0.20286644 -0.16194476 -0.18741126 -0.17985988 -0.24590616
-0.1383269 -0.34298024 -0.15584378 0.22267923 -0.012376152 -0.1962444 -0.11497634 -0.3204003
-0.65591806 -0.08139519 -0.07904505 -0.12019678 -0.43177754 -0.19748749 -0.3948537 -0.24899945
-0.31449872 -0.16984816 -0.17388333 -0.12903355 -0.16603588 -0.095894 -0.11261826 -0.21354643
-0.16312738 -0.15497789 -0.5845032 -0.18846084 -0.14264488 -0.18552206 -0.12766117 -0.1966912
-0.14360283 -0.43535382 -0.09417452 -0.16591328 -0.25808874 -0.4433246 -0.07545457 -0.20524977
-0.11288285 -0.16479541 -0.2586016 -0.20300245
